backend/ml_models/default_predictor/best_model.pt (torch, 113442 bytes, 19 tensors)

fc1.weight f4 [256, 20]
000000 1c 92 cc 38 b6 6a f7 bd 43 05 7f 3d 0f 33 72 3c
       9.754693e-05 -0.120809 0.062260877 0.014782681
000010 47 f6 a8 3c 20 a3 37 bd c3 47 a8 bd 12 c5 34 3d
       0.020625247 -0.044833302 -0.082168125 0.044133253
000020 4e c9 c4 bc 02 a6 12 be c9 dd 9b bd 8a f1 84 bd
       -0.02402177 -0.1432114 -0.076106615 -0.064913824
000030 67 09 b3 bd be ed 11 3e 4f 37 f5 3b 13 4b 9b bc
       -0.08742028 0.14250848 0.0074834 -0.018956697
000040 d4 ea 4f 3c 84 b7 b9 3d 0c 72 7c 3e 4f 6c 8c 3c
       0.012690265 0.09068206 0.2465288 0.01714149
000050 76 88 89 3d 0b 1b 57 bd b2 d9 20 ba 70 67 b2 bd
       0.06715481 -0.052516025 -0.0006135955 -0.087111354
000060 d0 8e c4 bd 46 50 08 be f3 18 f3 bd 16 cc 15 3e
       -0.09597552 -0.13311872 -0.11869993 0.14628634
000070 4f fe 82 bd 97 1a 16 3e 53 1d 55 bb 6c 61 c5 bd
       -0.06396162 0.1465858 -0.00325187 -0.096377224
000080 4a 16 01 3e 11 93 d5 3d fe 6f bc bd 24 18 fa bd
       0.12606159 0.10428441 -0.09201048 -0.12211636
000090 30 1a d6 bd fe fb d3 3d 32 83 24 3e cd 73 20 3e
       -0.104542136 0.10350798 0.16065672 0.15669174
0000a0 17 22 fb 3b 38 ed 71 bd b1 fb dc 3c 4c 42 c4 3d
       0.007663976 -0.05906412 0.026975485 0.095829576
0000b0 53 e9 72 3d fa c3 aa 3c 0e 44 85 3d 43 03 9e bd
       0.059304547 0.020845402 0.06507121 -0.07715466
0000c0 42 c0 8d 3d c8 dc 98 3d 2c 43 06 3e 03 bd 87 bc
       0.06921436 0.07463986 0.13111562 -0.01656962
0000d0 23 12 97 3d d9 54 f2 bc de 39 0c be 86 6f 97 bd
       0.07376506 -0.029581474 -0.1369395 -0.07394318
0000e0 4f 61 2a bd 4d 14 ee bd ac e8 49 3d d6 fd 9e bb
       -0.041596707 -0.11624966 0.04929416 -0.004852037
0000f0 00 6e 84 3d 47 01 47 bd dc 8c 75 bd 77 ba 87 3c
       0.06466293 -0.048585203 -0.059948787 0.016568406
000100 5e d2 15 3d c2 0c e3 3b ab be e9 bd 92 ee a0 3d
       0.036577575 0.006929011 -0.1141332 0.07858004
000110 ce 46 0c 3e b7 59 2f bd bc f8 0c be e0 cd 7f bd
       0.13698885 -0.042810168 -0.1376676 -0.062452197
000120 9e de dd 3d b9 cb 47 3c d1 88 c3 bd 57 ea ca 3d
       0.108334765 0.012194567 -0.0954758 0.09907978
000130 ec 38 3f bd 62 f1 eb bd f4 75 56 bd 15 db 36 3d
       -0.046685144 -0.115206495 -0.052358583 0.044642527
000140 9f e2 a6 bd 6e d0 95 3d 8a 81 cf 3c f8 cf 04 be
       -0.08148693 0.073151454 0.025330324 -0.12969959
000150 de c4 02 3e 63 c7 06 be dc 8b 32 3c 6f 78 14 be
       0.12770411 -0.13161997 0.010897603 -0.14499067
000160 2f 3f 16 be ba 37 f9 3d 8b 89 90 3d cb 8f 0f 3d
       -0.1467254 0.12168832 0.07057484 0.03504924
000170 ad e6 31 3e bc 4e 0f 3e d1 3d d5 3b 05 aa 89 3d
       0.17373152 0.13994879 0.006507613 0.06721882
000180 f9 7b 6e 3d cb d0 d1 bb 74 73 2f 3d c4 25 a3 3d
       0.0582237 -0.006403064 0.042834714 0.079661876
000190 a1 32 b4 bd 7b 7b ab 3a 2c 13 e4 bc 7c d4 77 bd
       -0.08798719 0.0013083065 -0.027841173 -0.060505375
0001a0 8a 54 d2 3b 3c e6 c8 3d 86 18 da bd 5e ea e0 bd
       0.0064187692 0.09809539 -0.10649209 -0.10982202
0001b0 2f d3 86 3d e0 8f 04 be 4c 02 98 3c fa de 5f 3d
       0.06583249 -0.12945509 0.018555783 0.054656006
0001c0 3a 85 30 3e 9d e9 bc 3d f2 2c 8c 3d 71 b6 bb bd
       0.17238322 0.09224246 0.0684451 -0.09165657
0001d0 4f f8 03 3d 46 44 f8 bd 27 96 09 be 02 f9 06 bd
       0.032219227 -0.12122397 -0.13436185 -0.032952316
0001e0 3b 44 10 3e f7 24 a7 3d a0 55 d7 bc 13 d5 17 3d
       0.14088528 0.08161347 -0.026285946 0.037068438
0001f0 83 2a 16 3d fb 2a 0b 3d a9 33 34 3d 4f 6f 80 bd
       0.036661636 0.033976536 0.04399458 -0.062712304
000200 bd dd f7 3d 78 43 a1 3d c9 4f 9b 3d b9 74 00 3e
       0.1210284 0.07874197 0.07583577 0.12544526
000210 f4 6a 5a 3d c8 b1 c8 bd ab 98 7e bd 3f fa b8 bd
       0.053324655 -0.09799534 -0.062157314 -0.09032106
000220 db 14 ca bd 83 c1 82 3d 9a 60 88 bc 8f 61 6c 3d
       -0.09867259 0.06384566 -0.016647626 0.057710227
000230 68 58 0a be 05 48 94 3c d4 fc 15 3e 94 0a e4 3b
       -0.13510287 0.018100748 0.14647228 0.006959269
000240 90 69 28 3d 5d 16 90 b9 b4 ff 3d 3e 06 4e 9a 3d
       0.041116297 -0.00027482482 0.18554574 0.07534413
000250 e9 8e e7 3d 53 61 8d 3d 2a bd 70 bd 3c b5 fa 3d
       0.11306555 0.06903329 -0.05877415 0.12241599
000260 c9 80 3b be 72 ed 6b bb f2 09 f7 bd 5e a2 f3 3c
       -0.18310846 -0.0035999683 -0.12062444 0.029740509
000270 f2 63 08 3e 8d 23 de 3c d4 ca 7c 3d c9 63 84 bd
       0.13319376 0.027116561 0.06171687 -0.06464345
000280 41 c0 94 bd 02 55 80 bd c6 96 04 3e e1 9a fe bd
       -0.07263232 -0.06266214 0.1294814 -0.124318846
000290 d3 2e 9c bd 3a 44 7a bc 4c b8 a7 bd 55 9c bb ba
       -0.076261185 -0.015275056 -0.08189449 -0.0014313558
0002a0 bf a1 fe bc ff 25 8b bd 4e f6 b0 bb f4 21 e7 bc
       -0.031082986 -0.067943566 -0.0054004556 -0.028214432
0002b0 e4 e3 e5 bd 5d f5 2a bd 1b a7 be 3d c0 28 72 3d
       -0.11225107 -0.041737903 0.093092166 0.059120893
0002c0 2f 7f d2 bd c9 b9 06 3d ee 25 1c 3e 97 97 25 3d
       -0.102781646 0.032892022 0.15248844 0.04042777
0002d0 4b 56 92 3b e6 c8 76 3c cc 72 af 3d 3c eb cd 3d
       0.0044658533 0.015062546 0.08566818 0.10054633
0002e0 dc 53 a3 bd d5 3d a9 bd 63 be e4 3d 6a 3c ff bd
       -0.07974979 -0.08263747 0.11169126 -0.12462695
0002f0 c5 76 a6 bd 52 c6 72 3c 32 c2 9c bd 00 00 10 bd
       -0.08128122 0.014817791 -0.07654227 -0.03515625
000300 98 22 92 3d df 2e 1f 3e 8a ef 46 bd c9 00 55 3d
       0.071355045 0.15545224 -0.048568286 0.052002702
000310 68 c7 51 bd f7 2f c5 3d cf 62 95 3d c0 e3 a1 3d
       -0.05121556 0.09628289 0.07294237 0.07904768
000320 ea af 9e 3d 9d be 5c 3d 81 9e 64 3d 12 45 87 3b
       0.07748397 0.05389272 0.055815224 0.004128107
000330 c4 03 0c 3d b3 21 15 be 6c 19 34 bd 28 3c 8d 3b
       0.03418328 -0.14563636 -0.043969557 0.0043101497
000340 3c 45 81 bd 93 75 65 bd cc 36 f6 3d a1 1c 42 bd
       -0.063120335 -0.05602033 0.120221704 -0.047390584
000350 0b 27 f8 3d af ba 71 3e 16 78 e0 3d 54 d2 91 bd
       0.12116822 0.2360637 0.109604046 -0.07120195
000360 0e e5 5b 3c 32 0c d5 bd 08 a8 80 3b cd e7 93 bd
       0.01342131 -0.10402717 0.003926281 -0.07221947
000370 34 32 0f be 8a ad ea bb 46 08 cf bc 14 1c 0d bd
       -0.13983995 -0.0071618007 -0.0252725 -0.034450606
000380 49 04 ed 3c b9 c9 b0 3d 53 8c e9 3c 19 98 12 be
       0.028932707 0.086322255 0.028509295 -0.14315833
000390 c8 aa 57 bd f5 db ee 3d b3 f6 39 bd df 0a 97 3d
       -0.052653104 0.11663047 -0.045401286 0.0737512
0003a0 8f 71 33 bd fc 54 cd bd f0 16 95 bd c9 ca 64 3d
       -0.04380947 -0.10025975 -0.072797656 0.055857453
0003b0 7b 3e 69 bc 5f 3f a7 3d 6e 55 8d 3d 73 e1 9a bc
       -0.014236088 0.08166384 0.0690106 -0.01890633
0003c0 a7 a2 1b bc 65 b8 4f 3d 12 a5 fb 3b 29 a1 16 3c
       -0.009499229 0.05071296 0.00767959 0.009193697
0003d0 ba 83 c6 3b 4b 31 7a bd 2c a9 4f 3d 2f 95 10 3d
       0.0060581835 -0.061082166 0.050698444 0.035298523
0003e0 c3 b4 cb 3d 08 71 ec bd f8 f1 4a bd 37 1c b3 3c
       0.09946587 -0.115449965 -0.049547166 0.02186404
0003f0 04 65 87 3c 99 83 77 3d 91 43 fe 3d cb d4 f8 bb
       0.01652766 0.060428236 0.12415231 -0.0075937263

fc1.bias f4 [256]
000000 c9 e8 51 3a 08 41 df 3a f6 e1 6d ba 4d 22 b9 b9
       0.0008007405 0.0017032931 -0.00090745033 -0.00035311506
000010 3f 66 73 ba f5 9e 20 ba 8e 66 92 ba cd 54 d9 39
       -0.000928495 -0.0006127202 -0.001116948 0.00041452647
000020 29 ea 51 3a 93 e8 38 bb 34 bb 20 bb c2 88 c2 3a
       0.000800761 -0.0028214797 -0.0024525644 0.0014841782
000030 96 a0 23 bb 7b 51 2d 3b bd d2 32 3b d0 67 5d 3b
       -0.0024967543 0.0026446271 0.0027286254 0.00337838
000040 8a 82 a3 ba 6f 8a f8 3a 81 d2 a7 3b 52 bd e3 3a
       -0.0012474817 0.0018962155 0.0051215296 0.0017375147
000050 d3 02 ba 38 e6 f6 28 3b 18 60 48 ba 47 80 e0 3a
       8.869697e-05 0.0025781929 -0.00076437136 0.0017128073
000060 27 47 e0 3a 90 d5 0b ba b1 de c5 3a c3 b7 ca 3b
       0.0017111049 -0.00053342525 0.0015096274 0.006186457
000070 9c 3f 3a 3a 52 97 14 bb 4a 19 45 3a 95 5e 90 3a
       0.00071048154 -0.0022673202 0.0007518722 0.0011014516
000080 a7 48 7c ba 05 d2 30 3b b0 74 ac ba 7b a4 85 ba
       -0.0009623863 0.002698065 -0.0013157334 -0.0010196114
000090 0b 8d 10 3b 25 aa 30 b9 54 08 f8 b8 34 09 81 3a
       0.0022056724 -0.00016848052 -0.00011827113 0.0009844662
0000a0 1d a6 fe ba ac 94 0e bb b9 7a 3c b9 33 ba c5 ba
       -0.0019428168 -0.0021756096 -0.00017974795 -0.0015085399
0000b0 4e e1 89 39 a6 78 50 3a 8f 7a 1b ba 66 76 8c 3b
       0.0002629854 0.00079525483 -0.00059310434 0.004286575
0000c0 37 09 8f bb ad 33 68 b8 61 1d 8a ba c3 ae be 39
       -0.004365112 -5.5361237e-05 -0.001053732 0.00036369832
0000d0 00 75 61 3a 11 19 26 3a 9c 25 c7 3a 45 0d 34 3b
       0.0008600503 0.00063361326 0.0015193704 0.002747373
0000e0 65 fc 31 bc 56 e9 ac ba 90 6e 8f 3a 06 7b 10 b9
       -0.010863398 -0.0013192098 0.0010942984 -0.0001377874
0000f0 b6 36 64 bb 6d bc f5 b9 97 64 66 3b 40 a2 64 3a
       -0.003482265 -0.0004687043 0.003515517 0.0008721687
000100 77 0a f7 ba ac 6f 1e ba e0 ad ae 3a f7 b5 0b ba
       -0.0018847723 -0.0006043862 0.0013326965 -0.0005329544
000110 ad eb 00 bb e2 c4 76 39 15 2c 9d 3a 8e fb 1b ba
       -0.0019671724 0.00023533733 0.0011991287 -0.00059502653
000120 81 ee 10 3b cb 21 81 3a 4f a7 ca b9 a8 ac c0 3a
       0.0022114816 0.000985199 -0.00038653097 0.0014699893
000130 00 13 d4 3a 2d 45 0f bb 46 57 63 39 82 ae 12 3a
       0.0016179979 -0.00218613 0.00021680919 0.00055954617
000140 51 99 a4 3a c4 38 db ba 22 dd 32 bb 95 1b 1a ba
       0.0012557899 -0.0016725291 -0.002729245 -0.0005878744
000150 8b e4 45 3b a7 c6 11 bb 50 cb 52 bb 25 7a b6 ba
       0.0030196037 -0.002224365 -0.003216464 -0.00139219
000160 4a d9 17 b9 18 17 32 3b 94 be 1c 3b 62 ff 5d ba
       -0.00014481429 0.002717441 0.0023917304 -0.0008468536
000170 d4 fa 80 39 21 18 d2 b8 37 1d 2c 3b c5 10 25 3a
       0.00024600944 -0.00010018075 0.002626253 0.00062967493
000180 06 b8 74 3a 96 83 c7 b9 5f 35 ec 3a fd d8 42 bb
       0.0009335283 -0.00038054277 0.0018021277 -0.0029731386
000190 d2 df cb ba d5 ac d0 ba 87 94 f4 b9 67 70 96 3a
       -0.0015554375 -0.0015920649 -0.00046649968 0.001147759
0001a0 18 7a 59 3b 34 14 2c bb f5 24 d6 3a 3a 36 9f 3b
       0.0033184346 -0.002625716 0.0016337918 0.004858759
0001b0 5d 67 db 3b eb 0d 90 3a c6 5e 4c bb be 7f 70 ba
       0.0066956715 0.0010990476 -0.003118442 -0.00091743085
0001c0 ef da a2 ba b3 49 f1 3a f8 a1 1e bb 08 4e 0e bb
       -0.0012424866 0.0018408805 -0.0024205428 -0.002171399
0001d0 d1 20 84 3a 91 75 d7 39 ac ee 95 ba c3 e7 34 ba
       0.0010080581 0.0004109559 -0.0011438928 -0.000690099
0001e0 a3 63 70 bb e6 41 7c 3a 8a e5 5c b9 0b 3a e9 ba
       -0.0036680482 0.0009622857 -0.00021066345 -0.0017793787
0001f0 ae 14 df ba 5f 3c 95 bb d0 f7 be 3a 3c 44 6c ba
       -0.0017019713 -0.004554316 0.0014569703 -0.0009012853
000200 66 4c 9a ba 23 d1 fe 39 ab 0a d2 ba c9 86 81 3a
       -0.0011772036 0.00048602474 -0.0016024908 0.0009882088
000210 f1 15 7e 3a 7a bb 81 ba 12 fb 53 3a 53 1b 90 39
       0.00096926006 -0.0009897791 0.00080864236 0.00027486178
000220 cc c8 13 ba 47 d3 96 39 3b 3f f3 b9 88 00 72 3b
       -0.0005637526 0.00028767643 -0.00046395682 0.0036926586
000230 67 0b d6 3a 2c 6c f7 b9 18 11 99 3b 01 7f 88 3a
       0.0016330302 -0.00047192106 0.004671227 0.0010413827
000240 2d ce a1 3a 8b 9e 06 b9 3a 05 43 ba bf 88 63 bb
       0.001234477 -0.00012838298 -0.00074394385 -0.0034718958
000250 91 21 44 bb 31 dc f9 ba 3f 69 78 3a 89 88 54 3a
       -0.0029927234 -0.0019062815 0.0009476132 0.00081075035
000260 d3 61 95 b9 8a dc 9b 3a b1 c7 38 3a 46 a1 c5 ba
       -0.0002849238 0.0011891287 0.00070487993 -0.001507797
000270 f3 5a 2f bb 9c a1 9b 3b 23 87 3a ba 56 4c 2d 3a
       -0.002675709 0.00474949 -0.0007115474 0.0006610801
000280 ff 5d c0 b9 96 da 24 bb ad 2a 8a 3a 29 da 6b 3b
       -0.00036691126 -0.0025154701 0.0010541283 0.0035988188
000290 50 77 b2 ba e5 c0 86 3b 72 7a 6a ba a5 76 32 3b
       -0.001361588 0.0041123503 -0.00089446374 0.0027231362
0002a0 0f a3 39 ba 67 ab 0c ba c1 fb f5 ba 1f 72 40 ba
       -0.00070814876 -0.0005366117 -0.0018767045 -0.0007341224
0002b0 55 d7 64 b8 80 9c f7 3a df bb e8 39 2c cf 92 ba
       -5.455998e-05 0.0018891245 0.00044390463 -0.0011200658
0002c0 05 5f 70 39 48 4c 6b ba 6e 7a 59 ba 02 ed d9 39
       0.00022923581 -0.00089759054 -0.00082961365 0.0004156605
0002d0 06 8b 36 bb 2f ee a8 b9 fc 7d 81 ba 99 ee 04 3b
       -0.002785386 -0.00032220918 -0.0009879465 0.0020283817
0002e0 3f a1 36 b8 7c 7b 96 ba 08 ba 6e bb 04 0f 80 3b
       -4.3542354e-05 -0.0011480893 -0.0036426801 0.00390804
0002f0 78 ca c1 3a 0b 66 12 3b f4 62 fb bb c3 51 83 37
       0.0014785072 0.0022338654 -0.0076717082 1.565449e-05
000300 6e 1a 1f ba 2d 71 46 39 c5 ad f3 3a d8 d5 06 3b
       -0.0006069307 0.00018924913 0.0018591216 0.0020574238
000310 3c 27 17 3b 82 91 16 3b 60 42 6d 3b 81 1e 37 3a
       0.0023064157 0.0022974913 0.0036202893 0.00069854414
000320 80 11 67 bb be d7 85 3b 4f 1d 43 3b 2c c3 22 3b
       -0.0035258234 0.0040845564 0.0029772108 0.002483557
000330 86 04 b7 3a ed c9 b4 b9 17 1e ce 38 43 d3 d6 bb
       0.001396314 -0.00034482722 9.82845e-05 -0.006555946
000340 f4 7e 90 ba f3 1f c2 3a 32 7f 30 3b 78 b3 e4 b9
       -0.0011024163 0.0014810547 0.0026931283 -0.00043621263
000350 cd 9a 81 3a 48 71 4b 3a b5 5c d7 3a 45 d4 e1 3a
       0.0009888053 0.00077607157 0.0016430827 0.0017229399
000360 51 f3 57 38 80 7b f2 39 ca dc c2 b7 96 3d 45 3a
       5.14866e-05 0.00046249852 -2.3229415e-05 0.00075241306
000370 e1 8b 15 ba 67 85 36 3a 6e 0b 56 ba 90 a9 07 bb
       -0.00057047425 0.00069626275 -0.00081651553 -0.0020700432
000380 b9 4a 7e 3a 93 a0 79 ba 4f 5b 75 bb 1e 79 08 3b
       0.00097004656 -0.00095225236 -0.0037438457 0.0020824145
000390 3d 9a d4 ba e2 8b 92 b9 54 5d 21 3b 35 90 ad b9
       -0.0016220283 -0.0002795151 0.0024622278 -0.00033104574
0003a0 8a f5 30 39 8d 3e a6 3a 66 ce a3 39 a5 e2 3e 3b
       0.00016876138 0.0012683437 0.00031243562 0.002912679
0003b0 56 82 37 3b 76 a8 70 3a a1 a1 93 ba 40 e5 51 ba
       0.002800127 0.0009180376 -0.0011263379 -0.0008006878
0003c0 c8 2d 92 3a a7 9d 13 bb 68 47 30 bb 74 1c 9a ba
       0.001115256 -0.0022524388 -0.002689803 -0.0011757747
0003d0 76 73 d3 ba 52 96 26 ba e7 ba fc 3a 38 02 0d ba
       -0.0016132433 -0.0006354797 0.0019281775 -0.0005379054
0003e0 59 9a 46 3a c4 8b 76 39 fd d2 a1 3a da 44 da ba
       0.00075761 0.00023512455 0.0012346205 -0.00166526
0003f0 c5 12 2b bb 4c ef 88 39 66 af 0b 3c be d9 9e ba
       -0.0026103717 0.00026118231 0.008525705 -0.0012119336

bn1.weight f4 [256]
000000 20 f6 7e 3f b8 3f 79 3f 03 95 74 3f 31 0d 73 3f
       0.99594307 0.9736285 0.95539874 0.94942003
000010 a7 86 76 3f be 64 7a 3f 04 1c 7d 3f 53 4b 7a 3f
       0.96299213 0.9780997 0.98870873 0.97771186
000020 31 d5 82 3f 77 6f 72 3f 41 42 82 3f 69 fc 7c 3f
       1.0221311 0.9470133 1.0176469 0.9882265
000030 34 af 8a 3f 14 74 84 3f 23 6c 7f 3f d3 72 86 3f
       1.0834718 1.0347924 0.9977438 1.0503792
000040 cf b5 74 3f f7 9f 8e 3f e7 90 8d 3f e0 f9 80 3f
       0.9558992 1.1142567 1.1059846 1.0076256
000050 bb fa 80 3f 5a a6 7d 3f 5f 1f 80 3f b6 62 83 3f
       1.0076517 0.9908196 1.0009574 1.0264499
000060 06 e4 78 3f 46 3a 85 3f 13 43 80 3f 36 e9 7d 3f
       0.97222936 1.0408409 1.002047 0.99183977
000070 0b 5b 81 3f de 3c 8d 3f 6e c3 85 3f ba cb 77 3f
       1.0105909 1.10342 1.0450265 0.9679524
000080 4e dd 71 3f fb 36 84 3f 29 e9 7b 3f 36 53 6b 3f
       0.9447831 1.0329279 0.9840265 0.91923845
000090 d6 98 82 3f bf f3 80 3f b2 b7 7d 3f 00 27 77 3f
       1.0202892 1.0074385 0.9910842 0.96543884
0000a0 05 90 74 3f 5e 32 7e 3f 1a fd 70 3f 75 cd 73 3f
       0.95532256 0.99295604 0.941362 0.9523538
0000b0 56 50 84 3f 5e 7d 7e 3f ca 86 78 3f a8 9b 81 3f
       1.0337017 0.99410045 0.9708067 1.0125628
0000c0 cc 17 80 3f 1b 4a 81 3f 21 29 7e 3f e7 63 80 3f
       1.0007262 1.010074 0.9928151 1.0030488
0000d0 f0 fa 85 3f 93 0f 75 3f fe be 7a 3f c0 4b 7e 3f
       1.0467205 0.9572689 0.9794768 0.99334335
0000e0 8b 5d 86 3f 12 ea 6f 3f 54 f5 8a 3f 83 ec 79 3f
       1.0497297 0.9371654 1.0856118 0.97626513
0000f0 9d 35 87 3f 1e 32 83 3f fc 0a 7c 3f 7b 1c 7c 3f
       1.0563236 1.024967 0.9845426 0.9848096
000100 e0 fd 82 3f 29 10 77 3f 43 e7 74 3f d1 63 89 3f
       1.0233727 0.96509033 0.9566538 1.0733587
000110 d2 7a 81 3f 6f 9b 7b 3f 91 a2 77 3f b0 82 82 3f
       1.0115607 0.9828405 0.9673243 1.0196133
000120 84 82 81 3f d8 6f 73 3f f1 c0 84 3f 97 8d 82 3f
       1.0117955 0.95092535 1.0371381 1.019946
000130 29 ba 71 3f 59 80 80 3f b2 4b 80 3f a3 01 83 3f
       0.9442468 1.0039169 1.00231 1.0234874
000140 76 f7 81 3f 79 88 75 3f 7d 78 82 3f 93 4e 6a 3f
       1.0153644 0.95911366 1.019302 0.91526145
000150 ec 13 79 3f 3f d8 77 3f c1 2a 94 3f a6 92 71 3f
       0.97296023 0.9681434 1.1575547 0.9436439
000160 b6 da 87 3f 12 24 74 3f e5 0b 81 3f 7f e1 7b 3f
       1.061362 0.9536754 1.0081755 0.98390955
000170 50 8c 75 3f c1 04 84 3f 23 37 74 3f c4 75 7a 3f
       0.95917225 1.0313951 0.9539663 0.97835946
000180 d2 86 83 3f 43 17 77 3f c9 61 92 3f e6 1e 82 3f
       1.0275519 0.9651987 1.1436092 1.016568
000190 e6 ba 8c 3f c6 9b 7f 3f 8b dd 84 3f 4c e0 7f 3f
       1.0994537 0.99847066 1.038011 0.99951625
0001a0 30 6f 79 3f 52 b7 99 3f 9a 94 88 3f 33 3e 79 3f
       0.97435284 1.200907 1.067035 0.97360533
0001b0 a0 ac 92 3f 26 f5 71 3f 4a ac 89 3f eb 77 86 3f
       1.1458931 0.9451469 1.0755703 1.0505346
0001c0 f7 9c 82 3f 21 88 81 3f 4b a7 80 3f e3 fa 6d 3f
       1.0204152 1.0119668 1.0051054 0.9296095
0001d0 b2 2f 82 3f 5b 36 7d 3f bb 19 7d 3f a5 6c 76 3f
       1.0170805 0.98911065 0.98867387 0.9625953
0001e0 be 00 7d 3f 2b 13 80 3f cf 77 81 3f 0e 78 7b 3f
       0.9882926 1.000585 1.0114688 0.98230064
0001f0 9d 3c 7d 3f e1 80 7b 3f f4 f9 8b 3f 71 9c 77 3f
       0.98920614 0.9824353 1.0935655 0.96723086
000200 32 4d 89 3f 82 02 7f 3f 96 4d 77 3f 69 cf 77 3f
       1.0726683 0.996132 0.9660276 0.9680086
000210 b6 cf 7c 3f d5 d1 7a 3f fd 44 6d 3f b5 4f 70 3f
       0.9875444 0.9797643 0.9268339 0.93871623
000220 6e f8 81 3f c3 08 82 3f ae 88 75 3f b9 36 6b 3f
       1.015394 1.0158924 0.9591168 0.91880375
000230 87 40 7e 3f e4 71 7f 3f 27 a4 84 3f d4 ef 7e 3f
       0.9931721 0.9978316 1.0362595 0.995847
000240 24 76 82 3f f0 f1 7f 3f 09 39 76 3f 79 e0 73 3f
       1.0192304 0.9997854 0.9618078 0.95264393
000250 da 3b 76 3f 42 30 86 3f bc 8a 79 3f b0 c6 76 3f
       0.96185076 1.0483477 0.97477317 0.96396923
000260 20 cb 7f 3f d0 d8 81 3f 00 27 7f 3f a7 1a 7c 3f
       0.9991932 1.0144291 0.99668884 0.9847817
000270 e3 eb 85 3f e2 60 7a 3f ce d5 79 3f 1d ce 7f 3f
       1.0462612 0.9780408 0.97591865 0.9992388
000280 b3 13 76 3f 69 56 75 3f cf bb 7c 3f 81 1d 88 3f
       0.9612381 0.95834976 0.98724073 1.0634004
000290 aa e4 79 3f 88 80 76 3f a1 a0 7b 3f cb 9d 7c 3f
       0.9761454 0.96289873 0.98291975 0.9867827
0002a0 c8 df 73 3f d9 84 7f 3f 4c 80 7f 3f e3 29 81 3f
       0.9526334 0.99812084 0.9980514 1.0090908
0002b0 16 70 83 3f 24 fb 8a 3f 62 1a 83 3f 34 44 78 3f
       1.0268581 1.0857892 1.0242426 0.9697907
0002c0 51 63 7a 3f 42 43 7d 3f 1a f8 75 3f 69 6f 84 3f
       0.97807795 0.9893075 0.960817 1.03465
0002d0 01 a6 84 3f 09 ac 87 3f 11 b3 79 3f d5 c2 81 3f
       1.036316 1.0599376 0.9753886 1.0137583
0002e0 c2 41 78 3f 0d 16 85 3f 39 19 7b 3f 48 c7 74 3f
       0.9697534 1.0397354 0.9808536 0.9561658
0002f0 7e 8e 74 3f 2c 62 79 3f 63 23 88 3f 20 c7 88 3f
       0.95529926 0.97415423 1.0635799 1.0685768
000300 85 15 82 3f 62 97 74 3f 7c d4 7d 3f 72 23 76 3f
       1.0162817 0.9554349 0.9915235 0.96147835
000310 5f f1 70 3f 0d 81 82 3f 40 d8 7c 3f 90 f4 84 3f
       0.94118303 1.0195633 0.9876747 1.0387135
000320 60 08 85 3f cc e2 78 3f e0 ab 79 3f b0 36 87 3f
       1.0393181 0.97221065 0.97527885 1.0563564
000330 50 4e 86 3f 88 8b 82 3f da a5 81 3f 31 e1 7e 3f
       1.0492649 1.0198832 1.0128739 0.99562365
000340 fd b4 7b 3f 8c cd 81 3f 04 66 7d 3f 6f 3c 89 3f
       0.9832304 1.0140853 0.9898379 1.0721568
000350 33 74 82 3f 76 7c 84 3f 86 8c 85 3f 87 9c 88 3f
       1.0191711 1.0350482 1.0433509 1.0672768
000360 34 2b 81 3f 46 02 81 3f fd 13 82 3f 38 88 80 3f
       1.009131 1.0078819 1.016235 1.0041571
000370 ed 1b 7c 3f c0 7b 6e 3f ab 68 6e 3f cb 00 80 3f
       0.9848011 0.9315758 0.9312846 1.0000242
000380 94 83 7f 3f fc 00 81 3f 92 49 7a 3f ee bb 81 3f
       0.9981015 1.0078425 0.9776851 1.0135477
000390 1e 59 78 3f 7e 0f 84 3f 15 97 8e 3f d1 e4 83 3f
       0.9701098 1.0317228 1.1139857 1.0304204
0003a0 88 e1 83 3f 1e 0b 70 3f 0d d5 81 3f ed 4c 79 3f
       1.0303202 0.93766963 1.0143143 0.97383004
0003b0 ef fb 7a 3f 9c 13 88 3f 89 0d 81 3f 0c 0c 84 3f
       0.9804067 1.0630984 1.0082256 1.0316176
0003c0 d5 da 73 3f a9 7a 7f 3f 98 27 75 3f 04 31 8c 3f
       0.95255786 0.9979654 0.9576354 1.0952458
0003d0 66 4d 86 3f 26 69 7e 3f 19 34 7b 3f 8d 64 80 3f
       1.049237 0.99379194 0.9812637 1.0030686
0003e0 13 4c 80 3f df 44 6d 3f 49 6d 78 3f e2 70 76 3f
       1.0023216 0.92683214 0.97041756 0.96265996
0003f0 ed 73 72 3f 8c c3 6c 3f 57 f3 73 3f 8e e9 7c 3f
       0.9470814 0.9248588 0.9529318 0.98793876

bn1.bias f4 [256]
000000 09 7d 0b bd 17 5f f3 bc 97 5b fa bc 2b d7 30 bd
       -0.03405479 -0.029708428 -0.030561252 -0.04317395
000010 13 b6 0f bd 9b 1c 99 bc 1d 51 ec bc fa ba 4b bd
       -0.03508575 -0.018690398 -0.028847272 -0.04973886
000020 08 a0 3a 3c 89 f2 23 bd 0b 5c 57 3d 0b 2d 00 bd
       0.0113906935 -0.04002622 0.052578013 -0.031292956
000030 9f ec f6 bc bb 31 bc bb 0a 84 aa bb 62 c0 ce bc
       -0.030142127 -0.005743233 -0.0052037286 -0.02523822
000040 f0 47 2d bd 75 ea 58 bd 58 cd fb bc 89 d2 02 3d
       -0.042304933 -0.05295797 -0.030737564 0.031939063
000050 fc be 61 3b 6a 58 e0 bc b5 b9 5b bb 79 a7 18 bd
       0.003444611 -0.02738591 -0.0033527438 -0.03726909
000060 ae 39 d4 bc 7e 9b 58 3b 5b 63 b5 bc e9 52 db bd
       -0.02590641 0.0033051665 -0.022142103 -0.10709173
000070 b3 f7 6e bc 34 ea 84 3d ac a0 04 3d 0e d5 fe bc
       -0.014585423 0.06489983 0.03237979 -0.031107452
000080 dd a1 1b bd f2 7f 66 3b 23 d5 02 bd 8b 68 92 bd
       -0.03799616 0.0035171476 -0.031941544 -0.07148846
000090 b1 f9 0d bc 0a e2 4a bb e7 54 21 bd 32 f3 26 bd
       -0.008665488 -0.0030957484 -0.03938761 -0.040759273
0000a0 66 c4 91 bc 11 ec 97 bc 5e bf 70 bd 87 6b 5e bd
       -0.017793845 -0.018545182 -0.058776252 -0.054301765
0000b0 a5 bf 38 bb 71 0b 32 bc 3f cb 82 bc 96 73 29 bd
       -0.00281904 -0.010866986 -0.015966056 -0.041369997
0000c0 d9 eb d1 bb 99 83 8d bb c8 c6 be bc 98 07 4c 39
       -0.006406289 -0.004318666 -0.023288146 0.00019457785
0000d0 b6 bb 87 3c 03 3f 63 bd 2e fb 3c 3b 31 4c b3 bd
       0.016569 -0.055480015 0.0028836238 -0.08754767
0000e0 07 45 9a bd c6 d6 34 bd 94 de 58 3d 31 35 b0 3b
       -0.07532697 -0.044150136 0.052946642 0.0053774347
0000f0 ef 82 dd bc c0 f6 22 bd f9 1c 9d 3b df 63 4f bc
       -0.027039973 -0.0397861 0.0047947136 -0.0126580885
000100 ee 76 38 bb a1 08 1f bd 0d 42 80 bc 39 49 28 3d
       -0.002814706 -0.03882659 -0.015656495 0.041085456
000110 be a5 7d bc 63 cf e5 bc e2 c2 d2 bc 60 e7 a2 3c
       -0.015481411 -0.028052991 -0.025727693 0.019885719
000120 4c 73 9f 3c c3 bd a0 bc ac 17 53 39 48 7a 81 bd
       0.019464158 -0.019621735 0.00020131347 -0.063221514
000130 7c 40 90 bd 7f 57 a5 bc 28 3b 3d 3c 0a 74 88 3c
       -0.070435494 -0.020183323 0.0115497485 0.016656894
000140 7c fd ff bc a3 b8 58 39 19 6e 48 bd 54 d1 3b bd
       -0.0312488 0.00020668148 -0.048933122 -0.045853928
000150 5f 24 48 bd 31 a8 5d bd f6 e2 2d bc 1d 81 f0 bc
       -0.04886281 -0.054115478 -0.010613194 -0.029358441
000160 74 e7 01 3c f2 68 32 bd 26 7a 06 bc 77 49 b9 bb
       0.007928718 -0.043557115 -0.008207833 -0.0056545096
000170 cf 7f 59 bd 0a 91 d1 3c af a4 67 bd 59 d0 d0 bc
       -0.053100403 0.025581855 -0.05655354 -0.025489973
000180 bb c5 1e 3d 38 92 d0 bc 1e 6f 02 bc 34 ad 56 3c
       0.03876279 -0.025460348 -0.007961063 0.013102818
000190 6a 34 0b bd 51 3e 17 bc 63 34 6b 3c e7 31 d4 bb
       -0.033985533 -0.009231166 0.014355752 -0.0064756754
0001a0 59 8e 6d bc a3 b0 00 bd fb 40 44 3a 5a 1c 4f bd
       -0.01449927 -0.031418454 0.00074864895 -0.050564148
0001b0 a7 cd 45 bd 10 c9 d3 bc 08 47 b3 3c ff 0f 08 3c
       -0.04829183 -0.02585271 0.021884456 0.008304595
0001c0 fc a5 25 3c 6c 28 13 3b 36 61 ec 3b 38 d6 86 bc
       0.010110375 0.0022454513 0.007213737 -0.01645957
0001d0 f3 e3 8a bc 1c 0c ec b8 0a f3 b0 3b e8 a1 b9 bc
       -0.016954398 -0.000112556125 0.0054000663 -0.02266021
0001e0 9e b3 c6 bc 75 16 3f bc aa 0c d4 bc 17 7b 35 3c
       -0.02425557 -0.011663069 -0.025884945 0.01107671
0001f0 d4 a2 04 bc 84 9b a5 bc 8a da 69 3d dc 60 19 bd
       -0.008095462 -0.020215757 0.05709318 -0.037445888
000200 86 d9 1c bc f3 56 c5 bc 72 19 37 bd 67 6c 19 bd
       -0.009573346 -0.024089312 -0.044702 -0.037456896
000210 87 8a cd 3c 80 bd 6a bc 43 61 3a bd ee 2d ea bc
       0.025090469 -0.014327407 -0.045502912 -0.028586354
000220 5f a3 b3 3b 0b bc 8a 3c 23 e5 b9 3b ee 73 a9 bd
       0.005482122 0.016935369 0.005673067 -0.08274065
000230 bc b7 93 bd ac 61 8e bc c7 eb 53 bd 28 d5 83 bd
       -0.07212779 -0.017380558 -0.051738527 -0.06437141
000240 70 7d 09 3d 76 2a 90 3b b4 d9 e7 bb 01 69 1a bd
       0.033566892 0.004399593 -0.007075513 -0.037697796
000250 b4 f8 6c bd 25 eb c5 3c 15 ca ed 3b 5c 49 80 bc
       -0.05785437 0.024159977 0.007256756 -0.01565998
000260 d7 ea dc ba b4 ef b7 bc e3 1d ab 3c 6f 3c 34 bd
       -0.0016854656 -0.022453167 0.020888275 -0.044002946
000270 94 98 34 bd f1 9f 27 bd ae 3f 32 bd 88 2c a2 bc
       -0.044090822 -0.040924016 -0.04351776 -0.019796625
000280 dc d4 69 bd 72 04 e3 bc 59 14 0c bd f2 fb 8a 3c
       -0.057087764 -0.02771208 -0.034199093 0.01696584
000290 66 f0 80 bc e9 5f b0 bd 72 95 2f bc dd d2 0f bc
       -0.01573963 -0.086120434 -0.010716783 -0.008778301
0002a0 47 90 6a bd 62 91 a7 3b 3b 00 8b bd 5b e1 ae bb
       -0.0572665 0.0051137665 -0.06787153 -0.005336923
0002b0 82 b3 23 3d 84 9d f4 3c ce cf b1 3c f8 ed 99 bc
       0.039966114 0.029860266 0.021705534 -0.01879023
0002c0 f8 53 39 bd 69 76 8e bc a9 3d 5d bd 85 c6 1e 3d
       -0.045246094 -0.017390447 -0.05401388 0.03876354
0002d0 3f 8f af 3c 2d 1f 0f bd de 30 1f bd 01 e9 c5 3c
       0.02143061 -0.03494184 -0.038864963 0.024158956
0002e0 ef ab 87 bd b3 95 0e 3d 60 34 8d bd e3 38 2e bd
       -0.066245906 0.034810733 -0.06894755 -0.04253472
0002f0 55 59 9e bc 99 88 43 bb 5e 10 ca bc ca 8f 54 3d
       -0.019329706 -0.0029836057 -0.024666008 0.05189494
000300 54 13 45 bc dd 3e 8f bd 9f 45 53 bc 01 6f e8 bc
       -0.012028534 -0.06994412 -0.012895017 -0.028373243
000310 b0 a8 fd bc 9a 18 b9 3c 0e 3e ef bc 74 25 07 3c
       -0.030964226 0.022594739 -0.029204395 0.008248676
000320 e6 12 cf 3b 81 93 22 bd 2e 62 c0 bd 90 90 91 3c
       0.0063193915 -0.039691452 -0.09393726 0.017769128
000330 a0 f0 28 3d 5c 64 3a 3c c7 4a 7d bb 1c 0b b7 bc
       0.041245103 0.011376467 -0.0038649307 -0.022344165
000340 00 70 10 bd 24 58 24 3b 90 aa 91 bb 93 d3 05 3d
       -0.03526306 0.002507695 -0.0044453815 0.032672476
000350 d4 bb df 3c ae 3e 9c 3d f5 88 34 bd aa 25 29 3d
       0.027311243 0.07629143 -0.044075925 0.041295685
000360 dd cb 75 bc 41 a7 6e 3b b6 b0 62 3b 8a c5 06 3d
       -0.015002218 0.003641561 0.0034590191 0.03290323
000370 96 e2 db bc ef ad 99 bd aa 70 83 bd 65 fd ca bb
       -0.026841443 -0.07503878 -0.06417973 -0.0061947578
000380 5c 54 ea 3b d5 82 8b bc 2b 02 9a bb 96 5f 19 3d
       0.0071511697 -0.017030159 -0.0046999655 0.037444673
000390 83 9f fc bc f4 28 c3 3c b4 d0 21 3b fb f2 b6 3b
       -0.03083778 0.023823239 0.0024691047 0.0055831647
0003a0 98 a6 2b bd 59 6f 58 bd cc f3 ed 3c 16 a5 c3 ba
       -0.041906923 -0.052840564 0.029046915 -0.0014926519
0003b0 7c 81 85 3b 8b fa 81 bb f1 34 62 3c df 58 88 3c
       0.0040742736 -0.0039666346 0.0138065675 0.01664394
0003c0 ea b9 28 bd 51 3e 84 3c d5 df 67 bd 4d bd 66 3d
       -0.041192926 0.016142996 -0.056609947 0.056332875
0003d0 a1 4d 3e 3d cc bd a0 3b 86 ee 61 bc 59 81 cc bc
       0.04646075 0.004905438 -0.013789779 -0.024964022
0003e0 26 39 f3 3b 5c 1e 92 bd 6a 5b 09 bc 4a 5e d8 bc
       0.007422584 -0.07134697 -0.008383611 -0.026412148
0003f0 84 61 5f bd f1 8c 04 bd ef 54 22 bd 5a 8d 1c ba
       -0.054536358 -0.032360975 -0.03963178 -0.0005971991

bn1.running_mean f4 [256]
000000 4d 32 44 bc 90 a6 14 bc ee 6a 17 3c 00 bc db b7
       -0.011974883 -0.009072915 0.009241803 -2.6194379e-05
000010 89 01 99 bc 4d 58 2d bc 9e ca ac 3b 68 23 81 bb
       -0.01867749 -0.010580135 0.0052731773 -0.0039409883
000020 91 06 88 3b d8 cd a0 bc 8a da 53 bc b8 0b b6 ba
       0.0041511734 -0.019629404 -0.012930522 -0.001388899
000030 a9 fb 2a bc 3c 83 15 bc ad 36 63 3c 88 bc 55 3a
       -0.010435977 -0.009125527 0.013868016 0.00081533985
000040 2d a6 19 3c f4 b6 c0 3b 96 13 05 bc 8c ff da 3c
       0.009377998 0.0058811847 -0.008122345 0.026733182
000050 24 51 25 bc e6 34 c5 bb bc cd 48 bb b8 56 ab 39
       -0.010090146 -0.006018269 -0.0030640205 0.00032680272
000060 ee 19 84 bc bc 23 03 3b f6 4d cc b9 1a f1 a4 bb
       -0.016125645 0.0020010313 -0.00038967998 -0.0050336244
000070 7e cb dd 3b ce d5 02 3c fc 6b 4a 3c a6 8a 9f 3c
       0.006768643 0.007985545 0.012354847 0.019475292
000080 b9 84 e0 3b e8 3e 85 3c 6c db 3a bb 80 e9 a8 b9
       0.0068517593 0.016265348 -0.0028512133 -0.00032217428
000090 94 34 05 3c 14 e8 45 bb 7c 7f 5b bb ac 63 b2 ba
       0.008130211 -0.0030198144 -0.0033492735 -0.0013610027
0000a0 6c 34 84 bc d6 18 00 3c f7 ba 0e 3b b7 5d 14 bb
       -0.016138278 0.007818421 0.002177892 -0.0022638866
0000b0 5c 61 c2 3b 32 66 9f 3c 5d 21 3d bc 78 c5 a0 3a
       0.0059320163 0.01945791 -0.011543599 0.0012265882
0000c0 6e 8f 43 bc fe 10 99 3b d4 b5 94 bb e7 a0 b0 bc
       -0.011936052 0.004671215 -0.004538277 -0.0215611
0000d0 1a d3 c3 3c 5a 04 1c bc 80 6d 08 3b 8c db 89 bc
       0.023904372 -0.009522522 0.002081722 -0.01682832
0000e0 d9 3e 0d bd 79 ae 86 bc 73 44 40 3b 23 a0 c6 bb
       -0.034483764 -0.016440617 0.0029337674 -0.0060615703
0000f0 7c 28 a6 bc ca fb 53 bc 95 07 29 3c 90 dc 90 3c
       -0.020282976 -0.012938449 0.010316749 0.017683297
000100 60 ae 92 3a 15 fa 2c bc 2d 93 ee bb a6 09 b8 3b
       0.0011190884 -0.010557671 -0.0072807283 0.0056163846
000110 92 d2 80 3c 47 cd a9 bb ce 0d fe 3b 60 87 5b 3c
       0.015725408 -0.0051819417 0.0077531105 0.013398975
000120 83 8c de 3b 40 8f 21 3b 49 bb 39 3c bb b6 8f bc
       0.0067916526 0.0024652034 0.011336156 -0.017543187
000130 7d a3 81 3c f4 2e 04 3c 71 6f 2b bc c3 84 86 3c
       0.015825028 0.008067835 -0.010463581 0.016420728
000140 24 1a 13 bc 3c f4 01 3c b2 f0 8b bc a8 70 ac bc
       -0.0089784 0.007931765 -0.017082546 -0.021049812
000150 0d 54 39 3c b8 ed e9 39 e4 08 13 3c 12 ad 01 bc
       0.011311543 0.00044618337 0.008974288 -0.007914798
000160 b9 8c b4 bb f4 2e c0 3a 66 87 e4 3a 74 93 0d bc
       -0.0055099395 0.0014662431 0.0017435371 -0.008641113
000170 00 ad 3c ba 72 bf 66 bb 6c 08 2d 3c 48 76 cf ba
       -0.000719741 -0.0035209325 0.01056109 -0.0015828097
000180 75 85 92 3c 7a fa c4 bc 4c 87 26 3c 7a 91 58 3c
       0.017885903 -0.024045218 0.010164093 0.013218278
000190 f8 4d a6 bc 56 99 0e 3c 4c 01 a8 3b 27 34 31 bb
       -0.02030085 0.00870355 0.0051271077 -0.0027039142
0001a0 3c 11 42 ba 82 25 7c 3b 10 d7 91 3b 78 c8 92 39
       -0.0007403081 0.0038474505 0.0044506863 0.0002799665
0001b0 75 9c 30 3c b5 41 72 3c 70 be a3 ba bd d9 0b 3c
       0.01077949 0.014786174 -0.0012492668 0.0085358
0001c0 ee ae 68 3c 40 ab a8 39 0e d9 8c 3c e8 74 73 bb
       0.014201863 0.00032171048 0.017193343 -0.003714854
0001d0 f0 45 75 3c 6e b8 87 bc e0 0a 91 ba 48 0c 68 3b
       0.014970288 -0.016567435 -0.0011065863 0.003540771
0001e0 c3 8d 80 bb 09 34 98 bb 28 ee ad bb d1 eb 96 3b
       -0.0039231493 -0.004644875 -0.0053079315 0.004605748
0001f0 62 24 46 bb 66 c7 0d bb b8 c1 43 3a e3 45 81 bc
       -0.0030234088 -0.0021633743 0.0007467526 -0.015780395
000200 d0 33 45 3c 24 7f a0 3b 42 3a 47 3c 14 de dc bb
       0.012036279 0.004897969 0.012159886 -0.006740341
000210 76 08 a1 bb 95 35 e4 bc 22 81 93 3b 0f c9 37 bc
       -0.0049143387 -0.027857581 0.004501478 -0.01121737
000220 3e ae 5e bc c0 4d 29 3a d7 8f 0f 3c d8 4c 71 bb
       -0.013591347 0.0006458424 0.008762321 -0.0036819484
000230 eb 69 a0 bc b0 ba 0b 3c 04 8d 78 bc c4 86 9c bc
       -0.019581756 0.0085283965 -0.0151703395 -0.01910723
000240 3f ba e6 3b a2 d9 ae bb f4 cc 50 bc 5c e8 b4 3c
       0.0070412452 -0.0053360024 -0.012744177 0.022083454
000250 85 13 6d bc 04 c6 4a bc 59 b6 89 bb cc f0 01 bc
       -0.014469986 -0.012376312 -0.0042026457 -0.007930946
000260 4a 32 de bb 4b f7 d1 3c f2 46 95 3c 81 d7 a9 bc
       -0.0067808973 0.025630614 0.018222306 -0.020732643
000270 80 4f 56 bc 1e 42 24 3c 70 4e 67 b9 04 12 4b b9
       -0.013080478 0.010025529 -0.00022059097 -0.000193663
000280 52 29 35 3c 1a 60 94 3b 16 ba 46 bc 25 cd 6b 3c
       0.011057215 0.0045280578 -0.012129327 0.014392172
000290 95 6d 9c bc 88 7e d8 3a cf 1e 15 bc 62 e7 d8 bb
       -0.019095222 0.0016517201 -0.009101584 -0.00661938
0002a0 a4 f1 21 bb ee 97 a2 3c a6 2a c6 bb 80 cb 6f b9
       -0.002471068 0.019847836 -0.0060475646 -0.00022868626
0002b0 60 5c 84 39 0c 08 22 3c c8 22 12 3c 89 ba cb bb
       0.00025245827 0.009889614 0.008919425 -0.006217305
0002c0 f6 4e 44 3c 9e 50 39 bb f8 23 bf bc 3b 48 54 3c
       0.011981716 -0.0028276811 -0.02333258 0.012956674
0002d0 a7 c9 f1 3b 32 af 53 bc d5 c8 04 3c a4 ae ff ba
       0.007378775 -0.012920188 0.008104523 -0.0019507003
0002e0 fd df 0d bc b2 9c 25 3c 8a dd 6a bc d3 f8 d9 bb
       -0.00865936 0.01010816 -0.014335046 -0.0066519766
0002f0 14 60 5a 3b 81 97 dd 3b 1e 19 e9 bc b3 0f 6f 3c
       0.0033321427 0.0067624454 -0.02845436 0.014591145
000300 e2 a0 d6 bb cb 00 b7 bc 4c 8f 06 3c 08 f7 aa bb
       -0.0065499404 -0.022339245 0.008212876 -0.0052174367
000310 d8 21 0e ba 6c e8 9c 3c a6 e2 75 bc 5c bb 81 ba
       -0.0005421913 0.019153796 -0.0150076505 -0.0009897756
000320 0b bc 1c 3c 3b b6 84 3c 23 66 4d ba 48 de e4 3c
       0.009566317 0.016200176 -0.0007835349 0.027938023
000330 2f ae 22 bc ae 22 f7 3a 5b 26 77 3c 16 7e 22 bc
       -0.009929224 0.001885494 0.015084828 -0.009917757
000340 ab 88 40 bc e6 ef 8f 3a 9e ff 2e bc 4e 19 ac bb
       -0.011751334 0.001098153 -0.010681061 -0.00525204
000350 6d 4e 7f 3b 8a 7d e6 3c be 77 c9 3b 2d 9b 0b 3c
       0.0038956658 0.028136034 0.0061483076 0.0085208835
000360 89 1a 66 bc f8 8d 95 39 f7 ab 87 bc a4 da dd bb
       -0.014044412 0.0002852527 -0.016561491 -0.0067704488
000370 c4 55 dc 3b 54 b9 12 bc d2 1f 80 bc a7 32 95 3c
       0.0067240912 -0.0089553185 -0.015640173 0.01821263
000380 d5 6c 17 3c 88 df ca bb af 7e 86 bc d0 bc 11 ba
       0.009242256 -0.006191198 -0.01641783 -0.0005559446
000390 f6 64 e9 bc c8 5c 03 bc be 3e 5b 3c e0 9c 50 3b
       -0.028490525 -0.008017726 0.013381658 0.0031831786
0003a0 b8 7b fd bb 26 13 bb 3c 25 b0 21 3c 04 1d 89 3b
       -0.0077356957 0.02283628 0.009868656 0.004184367
0003b0 d6 9e af 3b 50 02 35 3a 31 51 96 bb 64 41 13 3c
       0.005359511 0.00069049466 -0.0045873155 0.008987758
0003c0 4c 27 17 3c 8d 2f 92 3b cd cd 93 bb 20 7e 34 3c
       0.009225678 0.004461235 -0.0045106173 0.011016399
0003d0 09 1c f4 3b 92 e2 9f 3c 16 bd 49 3b 46 db b6 bc
       0.007449631 0.019517217 0.003078287 -0.022321355
0003e0 44 b9 18 3c 3d 3a 62 3b c0 53 33 bc f0 9c d9 bc
       0.0093215145 0.0034519576 -0.0109452605 -0.026564091
0003f0 97 0b 33 bc 20 1a cc bc 54 cb 18 bc 96 d3 e6 bb
       -0.010928056 -0.024914801 -0.009325821 -0.007044266

bn1.running_var f4 [256]
000000 aa 62 e0 3d d1 17 59 3e 1d 3b 6a 3d 48 3c 4a 3e
       0.10956319 0.21200491 0.05718528 0.19749558
000010 4a b5 0a 3e 37 02 07 3e 54 08 cf 3d 49 2e 83 3e
       0.13545719 0.13184439 0.1010901 0.2562125
000020 fa 8b e9 3d 45 b8 97 3d 15 6f 2d 3e fb 20 8d 3d
       0.114036515 0.074081935 0.16936906 0.06891056
000030 4e 17 b4 3d 13 12 bd 3d 43 dc cc 3d 50 0b 07 3e
       0.087935075 0.09231963 0.10002949 0.13187909
000040 24 7b 0a 3e 6c 9c cb 3d 4c b7 a1 3d e9 96 09 3e
       0.13523537 0.099419445 0.07896289 0.13436474
000050 eb 95 1e 3e 10 86 89 3d 3d 94 48 3e f8 97 fb 3d
       0.15486877 0.067150235 0.19587798 0.12284845
000060 d3 bb cf 3d 1d 3c 09 3e 5f 4f d6 3d b9 74 bb 3d
       0.101432465 0.13401838 0.104643576 0.091531225
000070 5c 56 21 3e f2 d6 07 3e f1 23 09 3e b3 ca 16 3e
       0.157556 0.13265589 0.13392617 0.14725761
000080 31 c0 51 3e c8 01 15 3e 96 0d bb 3d 3a 03 81 3e
       0.20483471 0.1455146 0.09133451 0.25197774
000090 7f 74 cb 3d 7b 98 00 3e 16 f5 da 3d a9 4b 21 3e
       0.09934329 0.12558167 0.10691278 0.15751518
0000a0 ec 22 0a 3e 6d 09 3c 3d 2a 34 13 3e 88 11 16 3e
       0.13489884 0.045907427 0.14375368 0.14655125
0000b0 19 24 9f 3d 48 f7 5d 3e c3 3d cb 3d 10 ae 0f 3e
       0.07770557 0.21676362 0.099238895 0.14031243
0000c0 a4 e5 66 3d b1 d1 75 3e be 25 16 3e cc 3c 12 3e
       0.056371346 0.24005772 0.14662835 0.14281005
0000d0 3a d6 f0 3d 3a 3f f4 3d a0 ab 70 3e 0a 91 ca 3d
       0.117596105 0.11926122 0.2350297 0.09890945
0000e0 bf 4c a3 3d 78 c4 72 3d ef 50 97 3d e6 58 9d 3d
       0.079736225 0.0592694 0.07388484 0.07682972
0000f0 cf 35 22 3e e2 dc 88 3d 6b 9c 1f 3d 53 c2 13 3e
       0.15840839 0.06682755 0.03896753 0.14429598
000100 02 c7 fc 3d 56 c5 2a 3e ca 4e fc 3d 2d b4 34 3d
       0.12342645 0.1667684 0.12319715 0.04411714
000110 b2 57 ee 3d 22 3a cc 3d 51 40 03 3e 81 47 8b 3e
       0.1163782 0.099720255 0.12817504 0.2720299
000120 22 f4 5a 3e 29 95 2c 3e e1 b9 83 3d 0f 01 1a 3e
       0.21382192 0.16853775 0.06431938 0.15039466
000130 9b 93 6c 3e 5b 68 d3 3d 19 57 0c 3e 1e b3 44 3e
       0.23103182 0.103226386 0.137051 0.19208953
000140 9e 10 0c 3e 85 ee 24 3e 72 87 d3 3d 9e 36 f7 3d
       0.13678214 0.16106613 0.103285685 0.12070964
000150 af 46 b3 3d 4b 85 1c 3e 42 26 95 3d 6b 50 c4 3d
       0.08753716 0.15285222 0.07282688 0.09585651
000160 97 61 e0 3d 55 35 0a 3e 0c 95 da 3d d2 8f d6 3d
       0.10956114 0.13496907 0.1067296 0.1047665
000170 91 c5 9c 3d dc aa 70 3d a0 19 cd 3d e7 27 01 3e
       0.0765487 0.058756694 0.10014653 0.12612878
000180 31 b1 cf 3d fd 5e fd 3d ff c5 87 3d 0b 5f f7 3d
       0.101412185 0.12371633 0.06629562 0.12078675
000190 b6 e2 8b 3d d9 45 16 3e 3b f1 32 3e 21 e7 90 3d
       0.06830351 0.14675082 0.17474835 0.07075334
0001a0 fe c6 d9 3d 79 12 f1 3d 6c 54 e7 3d d9 54 55 3e
       0.10633658 0.117711015 0.11295399 0.20833148
0001b0 d5 ef a2 3d a1 c4 e9 3d de 6b 96 3d 55 64 07 3e
       0.079559006 0.11414457 0.07344793 0.13221867
0001c0 a3 d9 40 3e 18 cc 15 3e ef 6e 20 3e 53 95 be 3d
       0.18833022 0.14628637 0.15667318 0.09305825
0001d0 a0 4f b2 3d 70 b4 56 3e 44 cf e9 3d 1a d1 d9 3d
       0.087065935 0.20967269 0.11416486 0.10635586
0001e0 a2 00 85 3d da 57 16 3e 19 92 83 3d fc 0f bd 3d
       0.06494261 0.1468195 0.0642435 0.092315644
0001f0 57 d8 05 3e 91 5e 98 3d a3 d9 a0 3d 0e e3 e5 3d
       0.13070808 0.07439912 0.07854011 0.11224948
000200 50 71 7a 3d 67 c8 2c 3e 9e 78 23 3e 66 51 38 3e
       0.06114322 0.16873322 0.1596398 0.17999801
000210 a5 87 a2 3e a5 60 ff 3d 9f 9a ac 3d b0 33 3d 3e
       0.31744114 0.12469605 0.08427929 0.18476748
000220 eb 98 18 3e e6 f1 ac 3d 62 e3 a7 3d 70 fd 0e 3e
       0.14902084 0.08444576 0.08197667 0.13963866
000230 2c 49 03 3e 5e 46 15 3e 5b 2c aa 3d da 8a 6d 3d
       0.12820882 0.14577624 0.083092414 0.057993747
000240 47 a3 f4 3d 45 cf 07 3e a9 82 32 3e ab aa a2 3d
       0.11945205 0.13262661 0.17432655 0.079427086
000250 4b 20 c1 3d 2c a2 92 3d 54 38 1c 3e 62 f3 1b 3e
       0.094299875 0.07159838 0.15255862 0.15229562
000260 79 f1 34 3e 09 82 b4 3d aa e2 14 3e 94 3d 14 3e
       0.1767024 0.08813865 0.1453959 0.14476615
000270 b2 c7 ff 3d 5f 98 92 3d 7b 2c 07 3e 83 d9 06 3e
       0.12489261 0.07157969 0.13200562 0.13168912
000280 ef d0 2e 3e 18 8a c1 3d 80 22 1a 3e 49 67 3c 3d
       0.1707189 0.094501674 0.15052223 0.045996938
000290 ea 68 ba 3d a1 3f 1c 3e db 4c f1 3d 06 38 c0 3d
       0.09102042 0.15258648 0.11782237 0.093856856
0002a0 18 b4 e5 3d 7c e4 df 3d fd 4c a2 3d e2 84 6d 3e
       0.11215991 0.10932252 0.079248406 0.23195222
0002b0 9f 9e 97 3d 7a 8f c7 3d 93 6f 2e 3e a3 e8 b9 3d
       0.074033014 0.09744163 0.1703475 0.09077575
0002c0 48 c1 05 3e c8 d4 d0 3d cc b8 b5 3d e5 20 2e 3e
       0.13062012 0.10196835 0.08873138 0.17004736
0002d0 dd 9f 08 3e d0 ca 1d 3e 24 aa 64 3e 01 3c 08 3e
       0.13342233 0.15409398 0.22330528 0.1330414
0002e0 98 ae 8a 3d 5f 91 29 3e fa da 1e 3e 66 d1 b0 3d
       0.06771582 0.16559361 0.1551322 0.086336896
0002f0 01 f5 d1 3d 56 d5 21 3e d6 42 7e 3d 7d 84 04 3e
       0.10251809 0.15804037 0.06207546 0.12941165
000300 90 11 ca 3d ed b3 ef 3d 13 57 c8 3d 03 ed 06 3e
       0.09866631 0.1170424 0.09782233 0.1317635
000310 3f 4a 20 3e 68 9b 52 3d 68 eb 29 3e 08 8d 01 3e
       0.15653323 0.05141774 0.16593707 0.12651455
000320 b0 3a 5b 3d dc 56 11 3e f7 19 cf 3d f6 c2 f4 3d
       0.053522766 0.1419329 0.10112374 0.11951248
000330 4b ef c1 3d bb 15 e3 3d e2 8d 36 3e 73 b0 db 3d
       0.0946947 0.11088129 0.17827561 0.107270144
000340 0c cf a3 3d 97 e1 c3 3d d8 42 34 3e 9c d9 41 3d
       0.079984754 0.09564512 0.17603624 0.04732667
000350 a0 cf 0a 3e 59 91 5a 3e 80 ba 07 3e 19 51 7e 3d
       0.13555765 0.21344508 0.13254738 0.06208906
000360 96 52 59 3d 33 11 3e 3e f2 9f 41 3e 18 42 36 3e
       0.053057276 0.18561248 0.1890867 0.1779865
000370 f4 d8 95 3e 6c c1 1a 3e 72 8e bb 3d 6a 2b 91 3e
       0.29267085 0.15112847 0.09158029 0.28353435
000380 c7 b8 f4 3d 6f 05 2e 3e d1 c0 e9 3d 44 8d 8f 3e
       0.11949306 0.1699426 0.1141373 0.28037465
000390 00 20 2b 3e 23 01 07 3e 98 66 f9 3d 5a 1a 1a 3e
       0.16711426 0.13184027 0.12177771 0.15049115
0003a0 52 00 a7 3d 30 d3 1e 3e f2 05 d4 3d 53 7d 03 3e
       0.08154358 0.15510249 0.103526965 0.12840776
0003b0 8a c6 40 3e 1a 3c 12 3d d0 75 33 3e d9 5a 23 3e
       0.18825737 0.03570185 0.1752541 0.15952624
0003c0 ff e4 0d 3e 2f 3e 29 3e 9a 1f 0e 3e 93 66 c4 3d
       0.13856886 0.16527627 0.13879243 0.09589877
0003d0 6d 01 48 3d 1c 8b 87 3e 49 06 39 3e 2f 40 20 3e
       0.048829485 0.2647332 0.18068804 0.15649484
0003e0 14 18 84 3e bf dc 14 3e 1d 25 26 3e 4d 13 33 3e
       0.2579962 0.14537333 0.16225095 0.17487831
0003f0 c0 31 aa 3d 13 bb 6e 3e b9 44 3b 3d cf b2 02 3e
       0.0831027 0.2331355 0.045719836 0.12763523

fc2.weight f4 [64, 256]
000000 67 cb a8 3d 2a 6d 24 3e b9 e9 2f 3d a6 f1 13 be
       0.08241921 0.16057268 0.042947505 -0.1444765
000010 38 e7 aa bd 56 65 ff bd a1 10 da 3d db 72 80 bd
       -0.08344883 -0.124705 0.10647703 -0.06271907
000020 eb 2f 1f 3e 53 37 5e bc ee d9 97 bd 1d 96 ee 3d
       0.15545623 -0.013562995 -0.07414614 0.116497256
000030 50 19 6b 3d bc b0 e2 3d 19 70 e8 3c e2 d8 1d be
       0.057397187 0.11068866 0.028373765 -0.15414765
000040 54 8d c2 3c 38 ca b4 bd b2 5a a0 3c d0 ec 98 3d
       0.023749031 -0.08827633 0.019574497 0.074670434
000050 08 11 14 be fd 3c fc bd 5a 8b 10 3e cc b5 df 3d
       -0.14459622 -0.1231632 0.14115658 0.10923347
000060 90 46 d3 bd b7 6e 9b 3d 4d 1e fe 3d 4f 92 24 bb
       -0.10316193 0.075894766 0.12408123 -0.002511162
000070 d3 3a 66 ba 3d 2c 8a bd ea 71 84 3d f0 1b fa 3d
       -0.0008782569 -0.06746719 0.0646704 0.1221236
000080 15 55 d7 3d f0 06 c2 3d f1 2b 19 3c 7d cf 14 be
       0.10514275 0.094739795 0.009348855 -0.14532275
000090 93 74 21 3d dd 88 dd bd 1d 2c ef 3d 4b 09 39 bc
       0.039417814 -0.1081712 0.11678336 -0.0112937195
0000a0 3c a8 ae bd 71 8a f8 bd ce 75 ce bd 1c af 4a bb
       -0.08528182 -0.121357806 -0.10081063 -0.0030927127
0000b0 2d b5 84 bb 11 fa a7 3d ca e0 ef bd a7 08 c9 3d
       -0.004049918 0.08201993 -0.11712797 0.098161034
0000c0 4f a7 76 3d 82 90 6e 3d 70 c2 b0 bb 83 fa 24 3d
       0.06021815 0.058243282 -0.0053942725 0.04027797
0000d0 e7 ee c7 bd 30 f2 a2 3d dc 97 e4 3d 2a ef 23 3b
       -0.09762364 0.0795635 0.111617774 0.002501438
0000e0 9d a6 1f bd 84 93 05 3d cf 63 52 3c 29 14 a5 3d
       -0.038977254 0.032611385 0.012841179 0.08060486
0000f0 bf c7 af bd ec 41 e8 3d 05 5a cf 3d 78 1d 92 bd
       -0.085830204 0.113406986 0.10124592 -0.07134527
000100 aa 14 df bc c5 64 fe bc b4 5b 68 3d a0 97 11 3e
       -0.027231533 -0.03105391 0.05672808 0.14217997
000110 2e a8 c6 3d 76 a9 5e 3c 11 d8 76 bd 90 da b8 bc
       0.097000465 0.013590207 -0.06026465 -0.022565156
000120 92 74 4f bd 01 04 48 3d bc a8 c8 bd ba ce f3 3d
       -0.05064828 0.048831943 -0.097978085 0.11904664
000130 c9 16 86 bc 56 7d fa bc b8 ff 01 3e f6 a3 ac bc
       -0.016368287 -0.030577343 0.12695205 -0.021074276
000140 b9 de 95 3d df 32 cc bd 49 9f ca 3c e4 ec d6 3d
       0.073178716 -0.099706404 0.024734156 0.10494402
000150 41 2e b7 bd 08 83 24 bd 7f c4 de bd 80 78 89 3d
       -0.08944369 -0.040164024 -0.108773224 0.06712437
000160 51 4c 99 bd c5 a5 ea bd 3d 38 aa bd 63 a3 eb 3d
       -0.07485259 -0.11457399 -0.08311508 0.11505773
000170 62 52 9a 3d fa ad 01 3e ad e2 fd 3d 07 ee d4 bd
       0.075352445 0.12664023 0.123967506 -0.103969626
000180 9c 1c 87 bd ba 72 ff 3d 37 5e 05 be 08 1e ac bd
       -0.06597254 0.12473054 -0.13024221 -0.084041655
000190 26 51 12 3e df 26 dd 3d 39 df b0 bd 8b 41 8b bd
       0.14288768 0.1079843 -0.08636326 -0.06799611
0001a0 65 2b c3 3d 44 7c 1b be 01 b5 d4 bd 9a 9c 2c bd
       0.09529761 -0.15184122 -0.10386086 -0.042141534
0001b0 cb 35 1f bd 13 7c 0a bd a1 e8 ea bd 5f 8e 07 be
       -0.03886966 -0.033809733 -0.11470152 -0.13237904
0001c0 09 48 d4 3c 45 83 a0 bc cf ec 0a be 2c e5 59 3d
       0.025913255 -0.019593844 -0.13566898 0.05319707
0001d0 a0 d8 12 be ea 99 16 be de 5a 86 3c 54 b5 d0 3d
       -0.14340448 -0.14707151 0.01640075 0.101908356
0001e0 32 b8 00 3e 97 30 fd 38 ef d2 a3 3c ff 71 af 3d
       0.12570265 0.00012073031 0.019998042 0.08566665
0001f0 b5 85 fd 3d da 6b b7 3d d2 72 23 bc 5f 97 c2 3d
       0.12379018 0.08956118 -0.009976106 0.09501528
000200 a5 1b b4 bd 67 c9 14 bb 92 23 88 bc 46 78 23 3d
       -0.08794335 -0.0022703053 -0.016618524 0.039909624
000210 9c 39 9a 3d 8c 1b 53 bc 53 f4 0e be 91 f2 aa bd
       0.07530519 -0.012884986 -0.1396039 -0.08347047
000220 e7 69 37 bc 56 a5 15 3e 8b aa c3 3d 62 de b0 3b
       -0.011194683 0.14613852 0.09554013 0.005397604
000230 a6 8f 65 bd d0 3e aa 3d dc 15 83 3d 97 6a 79 3d
       -0.056045197 0.08312762 0.06400654 0.060892668
000240 c7 4a 57 ba df cb 05 3d 16 5b a8 3d 99 7f 2d be
       -0.0008212742 0.03266513 0.08220498 -0.16943206
000250 b3 97 d7 bd 6b 98 67 ba 30 bc e5 bd 54 60 f6 3c
       -0.10526981 -0.0008834663 -0.112175345 0.03007523
000260 48 2e 8f bd a3 92 db bc c2 8f 49 3d 8c a6 09 3d
       -0.06991249 -0.02680332 0.049209364 0.033606097
000270 01 90 1d be 4a 60 8b 3d da 1d 2a bd ab 54 92 3b
       -0.15386964 0.06805475 -0.041532375 0.0044656596
000280 4f f0 fd bc c7 c8 91 bd 16 ee 8e 3d af 6d a5 bd
       -0.030998377 -0.07118373 0.06979005 -0.08077561
000290 6b b8 2e 3d 41 cf a7 bc 45 b4 ca 3d 64 4c de 3c
       0.042656343 -0.020484569 0.09897665 0.027136035
0002a0 68 99 5a bc 73 98 6e 3c 30 94 4f 3d b1 13 09 3d
       -0.013342239 0.014562714 0.050678432 0.033466045
0002b0 8e 87 91 bc 59 ad 8e bc 23 82 9b 3d f7 53 9b 3d
       -0.017764833 -0.017416643 0.07593181 0.075843744
0002c0 2a b0 07 3d 70 ce 01 be af c3 11 3d 3f b1 ba bd
       0.033126988 -0.12676406 0.03558701 -0.09115838
0002d0 f5 8a d8 bd 27 fb 21 be 00 51 ae 3d eb bb a1 3d
       -0.10573379 -0.15818463 0.08511543 0.07897171
0002e0 7d 0b 15 be 87 a4 44 3d 5e f2 16 3d 0d 95 a4 bc
       -0.14555164 0.048008468 0.036852233 -0.020090604
0002f0 54 7a b8 3d 20 fd 1b be 81 e8 1b 3d 78 b8 ec bd
       0.09007707 -0.15233278 0.03806353 -0.11558622
000300 68 62 c8 3b 1e 4d 00 3d d6 d7 02 be 8a d2 80 3d
       0.0061152466 0.031323545 -0.12777647 0.06290157
000310 94 fe b9 ba 5f 93 0e be f7 1c 83 3d c4 ec f6 bd
       -0.001419025 -0.13923405 0.06402009 -0.12056878
000320 d2 4a a3 3d a9 fd 23 be 74 9f 36 3d 39 58 7f bd
       0.07973255 -0.16014732 0.04458566 -0.062339995
000330 6d c5 71 bd a4 94 d6 bc 97 25 e6 bd ef 38 da 3a
       -0.05902617 -0.026193924 -0.112376384 0.0016649048
000340 b2 43 b9 3d 8e 9a 2e bd 53 e1 07 3e c1 7f ea 3d
       0.09046115 -0.042627864 0.13269548 0.114501484
000350 9e 4a 5b 3c aa cc d2 3c eb fc 91 3d b8 57 14 bc
       0.013384489 0.025732357 0.071283184 -0.009054117
000360 03 07 c5 3d 9a e2 a4 3d c0 d6 c1 bd 85 2c f8 3d
       0.09620478 0.08051033 -0.094647884 0.121178664
000370 71 2b 77 3d de 62 cb 3d ad 91 95 3d 42 26 f6 3d
       0.060344163 0.09930967 0.07303176 0.12019016
000380 c6 dc a5 3d 04 41 16 bb 2b 27 10 be a0 2d fc 3d
       0.0809875 -0.0022926936 -0.14077441 0.1231339
000390 31 f1 ae 3c 1a 5a 3d 3d 33 e0 a6 bd aa 91 28 bc
       0.021355243 0.046228506 -0.08148231 -0.010288635
0003a0 a1 5b 83 3d 76 d8 18 bd c5 2a 18 3d a5 f2 86 3d
       0.06413961 -0.03731581 0.037150163 0.065892495
0003b0 42 57 78 bd 61 cd 80 bd 95 b6 a6 3d c3 cb e9 bd
       -0.06063009 -0.06289173 0.081402935 -0.114158176
0003c0 c1 66 81 3d 51 5d 33 3d a4 3a ae 3d be f8 95 bd
       0.06318427 0.043790165 0.085072786 -0.073228344
0003d0 48 a0 fa 3b 25 7e 5d 3d 05 4c fe bd 97 7f ba 3d
       0.0076485015 0.05407538 -0.12416843 0.09106367
0003e0 56 b2 8a 3c 28 04 e6 bd 6d 27 f0 3c fb 12 d5 3d
       0.01693074 -0.112312615 0.029315675 0.10404011
0003f0 d7 ed 09 be 25 45 1e be 24 20 ea 3d f3 c0 2f bd
       -0.13469635 -0.15456064 0.114319116 -0.04290862
