backend/ml_models/default_predictor/final_model.pt (torch, 113469 bytes, 19 tensors)

fc1.weight f4 [256, 20]
0	0x3c274f44	0.0102117695
1	0xbdfc6992	-0.123248234
2	0x3d648316	0.055789076
3	0xbbf9b1e1	-0.007620082
4	0x399d3300	0.00029983371
5	0xbd3e6efb	-0.046492558
6	0xbd6e81bc	-0.058229193
7	0x3d34c512	0.044133253
8	0xbcc4c94e	-0.02402177
9	0xbe12a602	-0.1432114
10	0xbd5fc2b0	-0.054629028
11	0xbd5005ec	-0.050786898
12	0xbd9a9fe2	-0.075500265
13	0x3e1e0d0c	0.15434664
14	0x3c100a78	0.008791558
15	0xbcdff034	-0.027336217
16	0x3b8d63f7	0.0043148953
17	0x3dd4854d	0.103769876
18	0x3e859518	0.26090312
19	0x3b74cc04	0.0037353048
20	0x3d7dec81	0.061993126
21	0xbcd73b7b	-0.02627348
22	0x3a90429d	0.001100618
23	0xbdc5e995	-0.09663693
24	0xbdc43d05	-0.09581951
25	0xbe170b71	-0.14750458
26	0xbddc09bf	-0.107440464
27	0x3e15cc16	0.14628634
28	0xbd82fe4f	-0.06396162
29	0x3e161a97	0.1465858
30	0x3c2fe9f7	0.010736934
31	0xbdbf419f	-0.09338688
32	0x3dd85b05	0.105642356
33	0x3da962b4	0.08270779
34	0xbdf60716	-0.1201307
35	0xbe067cf8	-0.1313361
36	0xbdca8922	-0.09889437
37	0x3db98642	0.09058811
38	0x3e3db815	0.18527253
39	0x3e270158	0.16309106
40	0x3ba61b88	0.0050692
41	0xbd87d5e4	-0.06632593
42	0x3d0d4f78	0.034499615
43	0x3dcefabf	0.1010642
44	0x3d88e1b1	0.06683672
45	0x3bd366e9	0.006451477
46	0x3d4c9a45	0.04995181
47	0xbd9e0343	-0.07715466
48	0x3d8dc042	0.06921436
49	0x3d98dcc8	0.07463986
50	0x3df7edaf	0.121058814
51	0xbcfed4e6	-0.031107377
52	0x3da8572f	0.08219754
53	0xbcb6e8f0	-0.02232787
54	0xbe0c2e4c	-0.13689536
55	0xbd967737	-0.07346957
56	0xbd3c0287	-0.045900848
57	0xbe00e47c	-0.1258716
58	0x3d321ec0	0.043486357
59	0x3b9b224f	0.0047343145
60	0x3d7aaaf2	0.061198182
61	0xbd77f690	-0.060537875
62	0xbd7a4ccf	-0.061108407
63	0x3d23225a	0.039827682
64	0x3d0a73a6	0.033801697
65	0xbc01d7f6	-0.007925024
66	0xbdca65d4	-0.098827034
67	0x3da0ee92	0.07858004
68	0x3e0c46ce	0.13698885
69	0xbd2f59b7	-0.042810168
70	0xbe02758a	-0.1274015
71	0xbd527523	-0.05138124
72	0x3df9aa25	0.121906556
73	0x3cc869c3	0.024464494
74	0xbdbc4b70	-0.09194076
75	0x3dff7ad8	0.124746025
76	0xbcc3b6d0	-0.023890883
77	0xbdc5725b	-0.09640952
78	0xbdbb8d81	-0.09157849
79	0x3ccae361	0.024766626
80	0xbd86a201	-0.065738685
81	0x3d999396	0.07498853
82	0x3c37ecb5	0.011225869
83	0xbe0e3fd5	-0.13891537
84	0x3df33073	0.11874475
85	0xbe05a234	-0.13050157
86	0x3ce18dea	0.02753349
87	0xbe14786f	-0.14499067
88	0xbe163f2f	-0.1467254
89	0x3df937ba	0.12168832
90	0x3dab0f44	0.08352521
91	0x3d442cd7	0.047894325
92	0x3e3ae935	0.18253024
93	0x3e18248e	0.14857695
94	0x3bc1072f	0.005890749
95	0x3d6d0fa8	0.05787626
96	0x3d7586f8	0.05994317
97	0x3add45f1	0.0016881806
98	0x3d56f199	0.0524765
99	0x3d6e6a52	0.058206864
100	0xbde9918c	-0.11404714
101	0xbb5392ef	-0.0032283624
102	0xbb7ee44f	-0.0038893407
103	0xbd745eae	-0.059660606
104	0xbb6b2249	-0.003587859
105	0x3dce20c3	0.100648426
106	0xbdf6140b	-0.12015542
107	0xbde0ea5e	-0.10982202
108	0x3d86d32f	0.06583249
109	0xbe048fe0	-0.12945509
110	0x3bffd769	0.0078076613
111	0x3d341345	0.04396369
112	0x3e3a7917	0.18210255
113	0x3dd3c606	0.10340504
114	0x3d98504a	0.07437189
115	0xbdaef5c1	-0.085429676
116	0x3cfaa9c3	0.030598527
117	0xbdde7d2e	-0.1086372
118	0xbdf251a8	-0.11831981
119	0xbd2f0b9a	-0.042735673
120	0x3e133ee3	0.14379458
121	0x3db043df	0.086066954
122	0xbd0571cc	-0.03257923
123	0x3d205f42	0.039153345
124	0x3ceea1af	0.029129831
125	0x3d380a4d	0.0449317
126	0x3d31fdfe	0.043455116
127	0xbd806f4f	-0.062712304
128	0x3df7ddbd	0.1210284
129	0x3da14378	0.07874197
130	0x3d9cbe1f	0.0765345
131	0x3dfb1bc7	0.122611575
132	0x3d4a162c	0.04933755
133	0xbdcec4a4	-0.100961
134	0xbd77fc35	-0.060543258
135	0xbdb73a2d	-0.08946643
136	0xbdd888f6	-0.10572998
137	0x3d675c14	0.056484297
138	0xbccb5146	-0.024819028
139	0x3d66ccf0	0.056347787
140	0xbe00ed31	-0.12590481
141	0x3d20e466	0.039280318
142	0x3e104b4f	0.14091228
143	0xbc56a7f3	-0.013101566
144	0x3d3f2ab0	0.04667157
145	0x3c590f7a	0.013248319
146	0x3e3bef9f	0.18353127
147	0x3d9a4e06	0.07534413
148	0x3de78ee9	0.11306555
149	0x3d8d6153	0.06903329
150	0xbd3b6a4f	-0.04575568
151	0x3dd72d52	0.10506691
152	0xbe48d944	-0.1961413
153	0xbc7f3732	-0.015577124
154	0xbe08e1c6	-0.13367376
155	0x3c47883c	0.012178477
156	0x3dea876f	0.11451613
157	0x3c8b4eb3	0.0170053
158	0x3da2556d	0.0792645
159	0xbd7effc0	-0.06225562
160	0xbdb35182	-0.08755781
161	0xbd3feeba	-0.046858527
162	0x3e11c277	0.14234339
163	0xbde501c7	-0.111819796
164	0xbd598bde	-0.053111903
165	0xbb86dc21	-0.004115597
166	0xbda7d3ec	-0.08194718
167	0xbabb9c55	-0.0014313558
168	0xbcfea1bf	-0.031082986
169	0xbd8b25ff	-0.067943566
170	0xbbd7009e	-0.006561353
171	0xbce433b3	-0.027856683
172	0xbe0019db	-0.12509863
173	0xbd59c446	-0.053165697
174	0x3daf0da4	0.085475236
175	0x3d92b833	0.071640395
176	0xbdb9d27d	-0.090733506
177	0x3d34cbf5	0.04413982
178	0x3e1a5c83	0.15074353
179	0x3d6d1edd	0.05789076
180	0x3c1c13c3	0.009526196
181	0x3bf6d9cc	0.0075332876
182	0x3da30941	0.079607494
183	0x3dea2df2	0.114345446
184	0xbd869a46	-0.06572394
185	0xbdad9857	-0.08476322
186	0x3de274d1	0.11057437
187	0xbdff3c6a	-0.12462695
188	0xbda676c5	-0.08128122
189	0x3c72c652	0.014817791
190	0xbda2b2b3	-0.079442404
191	0xbd0a182c	-0.03371446
192	0x3da6b5ea	0.08140166
193	0x3e28cb80	0.16483879
194	0xbd36d0f2	-0.04463286
195	0x3d916f5e	0.0710132
196	0xbd811353	-0.06302514
197	0x3da6c839	0.08143658
198	0x3d964530	0.07337415
199	0x3d80e1e4	0.06293085
200	0x3d9531dd	0.07284901
201	0x3d5e95b5	0.05434199
202	0x3d7d2da6	0.061811112
203	0xbc44eb2f	-0.012018963
204	0x3c308db4	0.010775972
205	0xbde5fda2	-0.11230017
206	0xbcc9d268	-0.024636462
207	0x3b8d3c28	0.0043101497
208	0xbd81453c	-0.063120335
209	0xbd657593	-0.05602033
210	0x3e08bcb1	0.1335323
211	0xbcf54031	-0.029937835
212	0x3e136073	0.14392261
213	0x3e87999e	0.26484388
214	0x3e07fbea	0.13279691
215	0xbd92bb72	-0.071646586
216	0x3d386a41	0.045023207
217	0xbd9ee3d7	-0.07758301
218	0xbaa5a1fd	-0.0012636777
219	0xbd8556c4	-0.0651069
220	0xbdf8a57d	-0.121409394
221	0x3b896b9d	0.0041937367
222	0xbd2ca6d2	-0.04215128
223	0xbc9d9dcf	-0.019240288
224	0x3bace1f9	0.0052759615
225	0x3dbbdb64	0.09172705
226	0x3caf9965	0.021435449
227	0xbe129819	-0.14315833
228	0xbd57aac8	-0.052653104
229	0x3deedbf5	0.11663047
230	0xbd8840d0	-0.06652987
231	0x3db81dd6	0.08990066
232	0xbd44779f	-0.047965642
233	0xbdd2aaa7	-0.102864556
234	0xbd9f337a	-0.0777349
235	0x3d860027	0.06542998
236	0xbce8ce9d	-0.028418833
237	0x3d819dd6	0.06328933
238	0x3d9f5cfd	0.07781408
239	0xbd1f13d5	-0.038837273
240	0xbbdfe94f	-0.0068332325
241	0x3d794fd7	0.060867157
242	0x3c016e5a	0.007899845
243	0x3c0e3b71	0.008681164
244	0x3c3b990f	0.011450066
245	0xbd73aef1	-0.05949301
246	0x3d4f342b	0.05058686
247	0x3d10952f	0.035298523
248	0x3dcbb4c3	0.09946587
249	0xbdec7108	-0.115449965
250	0xbd0f8035	-0.035034377
251	0x3b94a5c9	0.0045363647
252	0x3c8cbfbe	0.017181274
253	0x3d7b9796	0.06142386
254	0x3defe18e	0.11712943
255	0xbc7fd9a4	-0.015615854

fc1.bias f4 [256]
0	0x3b0c8b52	0.0021445346
1	0x3b03025a	0.0019990415
2	0xba84cfde	-0.001013275
3	0xb9f768bb	-0.00047189542
4	0xbae68a55	-0.0017588834
5	0xba0c14ec	-0.0005343694
6	0xba1b6165	-0.00059272937
7	0x3a4d50d1	0.0007832172
8	0x3a8023ab	0.0009776255
9	0xbb4b66e2	-0.0031036665
10	0xbaf64839	-0.0018789835
11	0x3ad55044	0.0016274531
12	0xbae9345e	-0.0017792096
13	0x3b5ff7a9	0.0034174717
14	0x3b4260a8	0.0029659662
15	0x3b2f6b30	0.002676677
16	0xbac808dc	-0.0015261429
17	0x38d83550	0.00010309613
18	0x3b99e6c8	0.0046967007
19	0x3addf570	0.0016934108
20	0x3996af7f	0.00028740984
21	0x3b36193e	0.0027786042
22	0xba1d3aad	-0.0005997818
23	0x3a8102d6	0.0009842764
24	0x3b0c3e0f	0.0021399294
25	0xb9c030f0	-0.00036657555
26	0x3a6c1648	0.0009006006
27	0x3bd8008e	0.006591863
28	0x3a9f32f7	0.0012145926
29	0xbb05c768	-0.0020413045
30	0x3acf2aef	0.0015805642
31	0x3a20ac84	0.00061292225
32	0xba305d70	-0.00067277905
33	0x3b462740	0.0030235797
34	0xba964f8b	-0.0011467797
35	0xba7a84ea	-0.0009556549
36	0x3b0f13a0	0.0021831766
37	0xb9589ca3	-0.00020657717
38	0x3a9da237	0.0012026493
39	0x3a9517e3	0.0011374917
40	0xbabf320e	-0.0014587061
41	0xbb00bfcf	-0.0019645577
42	0xb98d65c7	-0.00026969446
43	0xba9ddc4b	-0.0012043802
44	0x39f20a07	0.00046165308
45	0x3a41e25c	0.0007396096
46	0xb8d55a7d	-0.00010173486
47	0x3baf541b	0.0053506023
48	0xbbba5042	-0.005685837
49	0xb9d13efa	-0.00039910508
50	0xbaa580a1	-0.0012626835
51	0x3a81c3c8	0.0009900266
52	0x39f4122a	0.0004655284
53	0x3a69fc74	0.0008925863
54	0x3ab86f11	0.0014071186
55	0x3b0d26f6	0.0021538115
56	0xbc2dda7a	-0.010611171
57	0xba51591c	-0.00079859956
58	0x3ad71f42	0.0016412514
59	0x39b6708c	0.000347976
60	0xbb6bfdec	-0.0036009504
61	0x39b839a2	0.00035138155
62	0x3b83fa36	0.00402763
63	0x3a89234b	0.0010462789
64	0xbb152ab0	-0.002276104
65	0xb9367054	-0.00017398718
66	0x3a28598a	0.0006422034
67	0xbb02e675	-0.001997379
68	0xbb065b32	-0.0020501134
69	0xb7c2449d	-2.3158553e-05
70	0x3ab12cc8	0.0013517374
71	0xba9a0127	-0.0011749611
72	0x3b15d913	0.0022864982
73	0x3aab3074	0.0013060705
74	0xb9e3164f	-0.00043313435
75	0x3b4314ca	0.002976703
76	0x3acb89a8	0.0015528696
77	0xbad94cf1	-0.0016578716
78	0x39af9314	0.00033488183
79	0x3a594483	0.0008288102
80	0x395dec94	0.00021164335
81	0xbb1fcc7d	-0.002438336
82	0xbb820913	-0.003968367
83	0xba798e12	-0.00095197663
84	0x3b1b17f6	0.0023665405
85	0xba87d35e	-0.0010362675
86	0xbb83fcaa	-0.0040279226
87	0xb98b9136	-0.00026620337
88	0xbadd4daa	-0.0016884108
89	0x3b124f0c	0.0022324948
90	0x3b368c8c	0.0027854769
91	0x39b14329	0.0003381011
92	0x39f4e72c	0.00046711543
93	0x3b257860	0.002524875
94	0x3b314071	0.0027046467
95	0x3aa7b9b6	0.0012796435
96	0x3aedc277	0.001813962
97	0xb9db0fb6	-0.0004178264
98	0x3b8eb543	0.004355104
99	0xbb51a14a	-0.0031987005
100	0x398f109c	0.0002728746
101	0xba8b9e23	-0.0010651987
102	0xba2bacde	-0.00065488915
103	0x3ab03d65	0.0013446031
104	0x3b51bb6f	0.0032002588
105	0xbb68c88c	-0.0035519926
106	0xba06b5ca	-0.0005138783
107	0x3bae9034	0.005327249
108	0x3bfc7dd4	0.0077054296
109	0x3a8ad74d	0.0010592729
110	0xbb03e915	-0.0020127941
111	0xba27e2e8	-0.0006404356
112	0xba642efd	-0.00087045116
113	0x3b03fc16	0.0020139269
114	0xbb317132	-0.0027075526
115	0xbb13e84d	-0.0022568882
116	0xba332814	-0.000683428
117	0x3a7f91c9	0.00097492017
118	0xba3e0d48	-0.0007249904
119	0xba5503f6	-0.00081258954
120	0xbb4cd750	-0.0031256266
121	0x3aa7063f	0.001274295
122	0x3aa72ff3	0.0012755379
123	0xbb3551c2	-0.002766714
124	0xbb074506	-0.0020640506
125	0xbb8ac7ad	-0.004235229
126	0x39c1b7bf	0.0003694873
127	0xba856441	-0.0010176973
128	0xbb5afef1	-0.0033416117
129	0x3a2325b8	0.0006223577
130	0xbabb99e7	-0.0014312834
131	0x3a9d8862	0.0012018795
132	0x3a6588ef	0.00087560614
133	0xbb07fbd0	-0.0020749457
134	0xb8ce9516	-9.850615e-05
135	0xb7401811	-1.1449695e-05
136	0xbae5368e	-0.0017487572
137	0x393c0fb5	0.00017934928
138	0xb9ca89f7	-0.00038631234
139	0x3b8462fa	0.0040401192
140	0x3b100a97	0.0021978968
141	0xb94a5b3c	-0.00019298209
142	0x3b884fb9	0.0041598943
143	0xba5231a8	-0.00080182636
144	0x39f71d8e	0.0004713353
145	0xba039112	-0.00050188706
146	0xb9995e2d	-0.000292526
147	0xbb6fc3fe	-0.0036585326
148	0xbb2d7a28	-0.0026470516
149	0xbb5357a1	-0.0032248276
150	0x3a96d906	0.001150877
151	0x3a9ff5f0	0.0012204032
152	0xbaadaa59	-0.001324962
153	0x3a5ee36d	0.0008502517
154	0x39cb1cae	0.00038740545
155	0xbab38e33	-0.0013698995
156	0xbb271abe	-0.0025498117
157	0x3b94a91b	0.0045367605
158	0xba1729de	-0.00057664316
159	0x3a2acd43	0.0006515572
160	0xb79875c8	-1.8174658e-05
161	0xbb433d36	-0.0029791123
162	0x3a83358b	0.0010010464
163	0x3b66a233	0.0035191893
164	0xbb23d7c4	-0.0025000433
165	0x3b83e1d1	0.004024722
166	0xba9f3514	-0.0012146556
167	0x3b0960bb	0.0020962197
168	0xba0a1f88	-0.0005268981
169	0xb9ac56e4	-0.00032871135
170	0xbad7ef15	-0.001647445
171	0xba2c3552	-0.00065692246
172	0xb9fffb9c	-0.00048824854
173	0x3b0e7028	0.002173433
174	0x3a847bdd	0.0010107715
175	0xba772a51	-0.0009428608
176	0x39ccf79c	0.00039094395
177	0xba76fedd	-0.0009422133
178	0xb9cde72d	-0.00039272886
179	0xba4241c5	-0.0007410313
180	0xbb27045b	-0.0025484774
181	0x3b06063e	0.0020450498
182	0xba69b572	-0.0008915282
183	0x3b182b5c	0.0023219204
184	0x3a224197	0.0006189583
185	0xbab1669d	-0.001353461
186	0xbb508f89	-0.0031823835
187	0x3bad0d8f	0.0052811573
188	0x3af485e9	0.0018655631
189	0x3ad39d25	0.0016144855
190	0xbc22847b	-0.009919281
191	0x39f18bd0	0.0004607127
192	0xb8be5c7e	-9.077134e-05
193	0x3a621d2e	0.0008625564
194	0x3b4407a8	0.002991179
195	0x3b173d2c	0.0023077233
196	0x3b1af3de	0.0023643891
197	0x3b1b069e	0.0023655067
198	0x3b490299	0.0030671714
199	0x398245d6	0.00024847564
200	0xbb2f1138	-0.0026713144
201	0x3b6f454e	0.0036509815
202	0x3b606ac7	0.0034243332
203	0x3b11bbec	0.0022237254
204	0x3a774b1f	0.0009433496
205	0xba0432db	-0.00050429784
206	0x3aa69780	0.0012709945
207	0xbbce8a2e	-0.0063030934
208	0xbafdc80b	-0.0019361986
209	0x3a84f05a	0.0010142431
210	0x3b4f4b7b	0.0031630683
211	0xba03c581	-0.0005026684
212	0x39b4c8d8	0.00034481916
213	0x3aa9f65c	0.0012967098
214	0x3ab7b246	0.0014014922
215	0x3aba74cd	0.0014225483
216	0x3ab5f626	0.0013882562
217	0x3a19c047	0.00058651384
218	0xb9ff0752	-0.00048642844
219	0x3a2433cc	0.0006263822
220	0xb9828579	-0.00024894977
221	0x39d9340b	0.0004142824
222	0xbab394d8	-0.0013700975
223	0xbb171793	-0.0023054823
224	0x3a8b57a1	0.0010630974
225	0xba9df448	-0.0012050951
226	0xbb9a16e9	-0.004702438
227	0x3b14fcd8	0.0022733714
228	0xbafcdcc8	-0.0019291872
229	0xba415b0d	-0.00073759333
230	0x3afe62f7	0.0019408156
231	0xba299080	-0.00064683706
232	0x3b08d28d	0.0020877451
233	0x3acae9cc	0.0015481054
234	0x3a4d0358	0.00078206277
235	0x3b4ae9bc	0.003096207
236	0x3b31c8b7	0.0027127692
237	0xbb47e1d9	-0.0030499606
238	0xba27bef2	-0.00063989975
239	0xb9ed9716	-0.0004531673
240	0x3a7e2ba4	0.0009695834
241	0xbb03fb8a	-0.0020138943
242	0xbb1e936f	-0.0024196764
243	0xba688d9d	-0.00088711997
244	0xba422bbe	-0.0007407031
245	0xb78700f1	-1.6093692e-05
246	0x3b07d07b	0.002072363
247	0xb96990fe	-0.00022274625
248	0x3966c2a3	0.00022007017
249	0x39f88c6f	0.00047406877
250	0x3a4aaa9d	0.0007731112
251	0xbae8bbb6	-0.0017756138
252	0xbb63dd7b	-0.0034769464
253	0x3910c7cc	0.0001380734
254	0x3c08725d	0.008328048
255	0xba3cafeb	-0.00071978447

bn1.weight f4 [256]
0	0x3f7c2de2	0.9850751
1	0x3f77fcb0	0.96869946
2	0x3f716a4f	0.9430284
3	0x3f6ea7e2	0.9322492
4	0x3f7319b6	0.94961107
5	0x3f76a488	0.96344805
6	0x3f7a6ac6	0.97819173
7	0x3f774a73	0.96597975
8	0x3f82790f	1.0193194
9	0x3f6ef8f4	0.9334862
10	0x3f82eeed	1.0229164
11	0x3f7c3421	0.9851704
12	0x3f8a9a90	1.0828419
13	0x3f853453	1.0406593
14	0x3f80795a	1.0037034
15	0x3f88c7d9	1.0685989
16	0x3f77f38f	0.96856016
17	0x3f913038	1.134284
18	0x3f905aed	1.1277748
19	0x3f81906a	1.0122197
20	0x3f7fdb66	0.9994415
21	0x3f7cf79e	0.98815334
22	0x3f7fb238	0.99881315
23	0x3f82c0c8	1.0215082
24	0x3f717ebb	0.94334
25	0x3f838de5	1.0277678
26	0x3f7c94f8	0.9866481
27	0x3f7a380b	0.97741765
28	0x3f80f810	1.0075703
29	0x3f91223b	1.1338571
30	0x3f877b15	1.0584437
31	0x3f78251f	0.9693164
32	0x3f705844	0.9388468
33	0x3f8484cd	1.0353028
34	0x3f79de35	0.97604686
35	0x3f646c94	0.8922818
36	0x3f852edb	1.0404924
37	0x3f8490ea	1.0356724
38	0x3f801193	1.0005363
39	0x3f74d2f5	0.95634395
40	0x3f751e35	0.9574922
41	0x3f7e4eb0	0.9933882
42	0x3f6e0960	0.92983055
43	0x3f6ca0cb	0.9243285
44	0x3f86e8c6	1.0539787
45	0x3f807cb4	1.0038056
46	0x3f796993	0.9742672
47	0x3f7d0c6f	0.988471
48	0x3f7f1be9	0.9965196
49	0x3f7f253d	0.99666196
50	0x3f81036d	1.007917
51	0x3f7e5cfe	0.99360645
52	0x3f85ca07	1.0452279
53	0x3f73fa48	0.95303774
54	0x3f7913a1	0.97295576
55	0x3f82fbc2	1.023308
56	0x3f85927e	1.0435331
57	0x3f6c5f39	0.923328
58	0x3f8a4359	1.0801803
59	0x3f74a78d	0.9556816
60	0x3f8837db	1.0642046
61	0x3f826f83	1.0190281
62	0x3f7b6310	0.9819803
63	0x3f770cd7	0.9650397
64	0x3f86d846	1.0534751
65	0x3f73a70d	0.95176774
66	0x3f6f9e00	0.93600464
67	0x3f8bf9b2	1.0935576
68	0x3f813538	1.0094366
69	0x3f79f375	0.9763711
70	0x3f74c2df	0.9560985
71	0x3f83fd9c	1.031177
72	0x3f8041b2	1.0020049
73	0x3f6f01d5	0.9336217
74	0x3f86f780	1.0544281
75	0x3f81ca91	1.0139943
76	0x3f785856	0.9700979
77	0x3f814c5a	1.0101426
78	0x3f7ac0e4	0.9795058
79	0x3f84b040	1.0366287
80	0x3f81e434	1.0147767
81	0x3f778a1e	0.96695125
82	0x3f7e4f30	0.9933958
83	0x3f700610	0.9375925
84	0x3f772402	0.9653932
85	0x3f6fec5a	0.9372002
86	0x3f9a050b	1.2032789
87	0x3f6b1da1	0.91842085
88	0x3f87ba94	1.0603814
89	0x3f6fb127	0.9362969
90	0x3f81a986	1.012986
91	0x3f7a0c7f	0.9767532
92	0x3f755c45	0.9584392
93	0x3f7d7045	0.98999435
94	0x3f739c52	0.951604
95	0x3f7b390e	0.98133934
96	0x3f84425e	1.0332754
97	0x3f6d9feb	0.9282214
98	0x3f97d2ee	1.1861246
99	0x3f845639	1.0338813
100	0x3f8e59f3	1.11212
101	0x3f80154d	1.00065
102	0x3f83eee7	1.0307282
103	0x3f8057be	1.0026777
104	0x3f74655d	0.9546717
105	0x3fa1704d	1.2612396
106	0x3f8be652	1.0929663
107	0x3f7219cc	0.9457061
108	0x3f9811ba	1.188041
109	0x3f6c35bc	0.9226949
110	0x3f886383	1.0655369
111	0x3f84f04c	1.0385833
112	0x3f7fad8f	0.99874204
113	0x3f824fac	1.0180564
114	0x3f815938	1.0105352
115	0x3f6db5e6	0.9285568
116	0x3f837be5	1.0272185
117	0x3f72cdc1	0.94845206
118	0x3f7ab1e6	0.979277
119	0x3f711bb8	0.9418292
120	0x3f80ff36	1.0077884
121	0x3f811341	1.0084001
122	0x3f7f3257	0.9968619
123	0x3f803871	1.0017225
124	0x3f7c59ae	0.9857434
125	0x3f795766	0.97398984
126	0x3f8cea12	1.1008933
127	0x3f770547	0.9649243
128	0x3f8fe8d3	1.1242927
129	0x3f7c1354	0.9846699
130	0x3f70dfee	0.9409169
131	0x3f71d7e5	0.94470054
132	0x3f796d45	0.9743236
133	0x3f798512	0.97468674
134	0x3f668168	0.9004121
135	0x3f68e5a6	0.90975416
136	0x3f812721	1.0090066
137	0x3f855319	1.0415984
138	0x3f70521f	0.93875307
139	0x3f64d174	0.893821
140	0x3f79e072	0.976081
141	0x3f7fbbfa	0.99896204
142	0x3f862380	1.0479584
143	0x3f797ba5	0.9745429
144	0x3f86347a	1.0484765
145	0x3f80b704	1.0055852
146	0x3f77a42e	0.96734893
147	0x3f726881	0.9469071
148	0x3f742033	0.9536163
149	0x3f872ee2	1.0561182
150	0x3f7474f0	0.9549093
151	0x3f75055d	0.9571131
152	0x3f7d4eed	0.98948556
153	0x3f834903	1.0256656
154	0x3f78f36a	0.9724642
155	0x3f7a4e62	0.9777585
156	0x3f856cce	1.042383
157	0x3f78b2bb	0.9714772
158	0x3f76a6fa	0.96348536
159	0x3f7da607	0.9908146
160	0x3f75d839	0.96033055
161	0x3f6ed254	0.93289685
162	0x3f7a796d	0.9784153
163	0x3f892d2e	1.0716913
164	0x3f76515d	0.962179
165	0x3f6f02ea	0.9336382
166	0x3f773e81	0.9657975
167	0x3f783196	0.9695066
168	0x3f6ec460	0.93268394
169	0x3f809638	1.0045843
170	0x3f7feaa0	0.99967384
171	0x3f83cf9b	1.0297731
172	0x3f842bc9	1.0325862
173	0x3f8e792b	1.1130728
174	0x3f85e65f	1.0460929
175	0x3f77da4e	0.9681748
176	0x3f8156c1	1.01046
177	0x3f7d87e2	0.99035466
178	0x3f6ebb75	0.93254787
179	0x3f84ecb3	1.0384735
180	0x3f86ad3e	1.0521619
181	0x3f8ad0e0	1.0844994
182	0x3f784879	0.96985584
183	0x3f83bffe	1.0292966
184	0x3f7a1f62	0.97704136
185	0x3f831514	1.0240808
186	0x3f808fd9	1.0043899
187	0x3f7347d4	0.95031476
188	0x3f71e89e	0.9449557
189	0x3f7173fa	0.9431759
190	0x3f871746	1.0553977
191	0x3f88fa50	1.0701389
192	0x3f8583e6	1.0430877
193	0x3f6f108f	0.9338464
194	0x3f81b82c	1.013433
195	0x3f6ec6ed	0.93272287
196	0x3f6d8807	0.92785686
197	0x3f855698	1.0417051
198	0x3f7c0213	0.98440665
199	0x3f848eb8	1.0356054
200	0x3f839c18	1.0282011
201	0x3f71dae2	0.94474614
202	0x3f77b922	0.96766865
203	0x3f8a6490	1.0811939
204	0x3f8ad582	1.0846407
205	0x3f854d68	1.0414248
206	0x3f834c5a	1.0257676
207	0x3f76b9ae	0.96377075
208	0x3f74b973	0.95595473
209	0x3f831dd2	1.0243475
210	0x3f7d9e84	0.9907
211	0x3f86d43b	1.0533518
212	0x3f84b63e	1.0368116
213	0x3f86eb3d	1.0540539
214	0x3f886461	1.0655633
215	0x3f89658f	1.0734118
216	0x3f807c25	1.0037886
217	0x3f83655c	1.0265307
218	0x3f8485bb	1.0353311
219	0x3f828c23	1.0199016
220	0x3f7b2ba0	0.9811344
221	0x3f6f81a8	0.93557215
222	0x3f6e90e1	0.9318982
223	0x3f80f6bb	1.0075296
224	0x3f7a7ce8	0.9784684
225	0x3f8291f1	1.0200788
226	0x3f78136a	0.96904624
227	0x3f82e349	1.0225612
228	0x3f7262f3	0.94682235
229	0x3f83e0e4	1.0303006
230	0x3f935f32	1.1513426
231	0x3f848cc2	1.0355456
232	0x3f8482c3	1.0352405
233	0x3f6a8bdb	0.9161965
234	0x3f8345a4	1.0255628
235	0x3f709d58	0.9399009
236	0x3f7a5071	0.97778994
237	0x3f89cc01	1.0765382
238	0x3f837d02	1.0272524
239	0x3f86b2da	1.0523331
240	0x3f708ae0	0.93961906
241	0x3f801300	1.0005798
242	0x3f78a31f	0.97123903
243	0x3f8c0317	1.0938443
244	0x3f85fed5	1.0468394
245	0x3f82be07	1.0214242
246	0x3f7b46c3	0.9815485
247	0x3f7de09a	0.9917084
248	0x3f8096b8	1.0045996
249	0x3f6f0e96	0.9338163
250	0x3f75169c	0.95737624
251	0x3f6b16bb	0.9183156
252	0x3f704658	0.93857336
253	0x3f6ae030	0.9174833
254	0x3f72ac83	0.9479448
255	0x3f7b0ced	0.980666

bn1.bias f4 [256]
0	0xbce6bb18	-0.028165385
1	0xbd44d08e	-0.048050456
2	0xbd0e3c00	-0.03472519
3	0xbd31575d	-0.043296207
4	0xbd44d408	-0.04805377
5	0xbd44f6c1	-0.048086885
6	0xbd08fe55	-0.033445675
7	0xbd874801	-0.066055305
8	0x3c2119a4	0.009832773
9	0xbd6f1afc	-0.058375344
10	0x3d180713	0.03711612
11	0xbcf4e5e8	-0.029894784
12	0xbd18517c	-0.037187085
13	0x3a791c97	0.00095028564
14	0xbb7c3b44	-0.0038487474
15	0xbd8b57ac	-0.068038315
16	0xbcefad67	-0.02925749
17	0xbdcbdb96	-0.09953992
18	0xbcbc6d95	-0.023001472
19	0x3d0b8582	0.03406287
20	0xbb3bd441	-0.0028660449
21	0xbd126ea9	-0.035750065
22	0xbcb8f72e	-0.022578802
23	0xbd6c2381	-0.057651047
24	0xbd0214b1	-0.031758014
25	0xbcd99ed6	-0.026564997
26	0xbd350c65	-0.044201273
27	0xbe14ab20	-0.14518404
28	0xbc79a652	-0.015237408
29	0x3da9d338	0.0829224
30	0x3d28cd77	0.04121157
31	0xbca3bbfd	-0.0199871
32	0xbd1d93cf	-0.03847104
33	0x3cbcb6e0	0.02303642
34	0xbcf53a61	-0.029935064
35	0xbdb9f2e4	-0.09079531
36	0x3c979543	0.01850379
37	0x3c726c39	0.01479631
38	0xbd3b885d	-0.045784343
39	0xbd3b4291	-0.04571778
40	0xbcfc495f	-0.030796705
41	0xbc371b38	-0.011175923
42	0xbda45694	-0.08024326
43	0xbdb73dee	-0.08947359
44	0x3bea756a	0.00715511
45	0xbb945ea2	-0.0045278827
46	0xbc95d947	-0.018292082
47	0xbd8832e9	-0.06650335
48	0xbd151874	-0.036400273
49	0xbcb3db3d	-0.021955127
50	0xbc469ed7	-0.012122831
51	0xbcad15a8	-0.02112849
52	0xb95950be	-0.00020724811
53	0xbd7fa983	-0.06241752
54	0x3c609f7b	0.013709898
55	0xbd8cad1d	-0.06868956
56	0xbdb3e49b	-0.087838374
57	0xbd926f87	-0.071501784
58	0x3d7cf469	0.061756525
59	0xbc9ca4f5	-0.019121626
60	0xbcd4c175	-0.025971154
61	0xbd655913	-0.05599315
62	0x3c899cf4	0.016798474
63	0xbcc7f62e	-0.02440938
64	0x3c3fe903	0.011713269
65	0xbd5360ba	-0.051605918
66	0xbd4e6fad	-0.05039947
67	0x3d91c63d	0.07117889
68	0xbcb9100f	-0.022590665
69	0xbd2fd71b	-0.04292975
70	0xbd1719fb	-0.03689001
71	0x3ce8a1fa	0.028397549
72	0xbbdbd196	-0.006708334
73	0xbd0f5514	-0.034993246
74	0xbca8ece4	-0.02062077
75	0xbd9d27e0	-0.07673621
76	0xbd8363d7	-0.06415527
77	0xbcadebc4	-0.021230586
78	0xbbe11a34	-0.0068695787
79	0x3ce1a612	0.027545009
80	0xbd68aedb	-0.05680738
81	0xbc190d10	-0.009341493
82	0xbd79ac14	-0.060955122
83	0xbcec6eda	-0.028861452
84	0xbd5ce0df	-0.05392539
85	0xbdc7bd3a	-0.09752889
86	0xbc968926	-0.018375944
87	0xbd5b21d1	-0.053499047
88	0xbce13f45	-0.02749599
89	0xbd71604e	-0.058929734
90	0xbccb6316	-0.024827521
91	0xbd1dbc3c	-0.038509592
92	0xbd97d14c	-0.07412967
93	0x3a921856	0.0011146169
94	0xbd4eccec	-0.050488397
95	0xbc8ca6c1	-0.017169358
96	0x3d7cb221	0.061693314
97	0xbd613c6a	-0.054989256
98	0xbd148c9d	-0.03626691
99	0x3d36cbf4	0.0446281
100	0xbd43fd8b	-0.04784922
101	0xba48a39e	-0.00076537754
102	0x3b1cb932	0.0023914096
103	0xbc9fe587	-0.019518627
104	0xbd037988	-0.032098323
105	0xbdb90fe1	-0.09036232
106	0xbc14dc8c	-0.009085786
107	0xbd9d5a55	-0.07683245
108	0xbd892cf3	-0.066980265
109	0xbd43af27	-0.04777446
110	0xbb3d3035	-0.0028867845
111	0x38de297a	0.000105935105
112	0xbbcac215	-0.006187687
113	0x3c2c1883	0.010503891
114	0x3c842c8d	0.016134525
115	0xbc833b31	-0.016019436
116	0xbd2ce30e	-0.042208724
117	0xbd0c49e5	-0.03425016
118	0xbc064ed6	-0.008197507
119	0xbd0aeb4e	-0.03391581
120	0xba993046	-0.001168736
121	0xbcb3afb8	-0.021934375
122	0xbd2defa5	-0.04246487
123	0x3c8889b1	0.016667219
124	0xbc83f5f1	-0.016108485
125	0xbcbdd8dd	-0.023174698
126	0x3d3f20b8	0.046662062
127	0xbd44e2ed	-0.048067976
128	0xbcc5647d	-0.024095768
129	0xbd0432e4	-0.032275096
130	0xbd825c6b	-0.063652836
131	0xbd964175	-0.07336704
132	0x3c5a7a02	0.013334753
133	0xbc7f974a	-0.015600035
134	0xbd83d4ae	-0.0643705
135	0xbd80a0c4	-0.062806636
136	0xbcaf0065	-0.021362493
137	0x3d17b6b4	0.037039474
138	0xbbe9e01b	-0.007137311
139	0xbde573d0	-0.1120373
140	0xbde0ce18	-0.10976809
141	0xbcaa79dc	-0.02081006
142	0xbd777c9e	-0.06042158
143	0xbdaef90b	-0.08543595
144	0x3d68bbd2	0.056819744
145	0x3ac84bef	0.0015281419
146	0x3b90acdf	0.004415139
147	0xbd3b5cf9	-0.045742963
148	0xbd936459	-0.07196874
149	0x3c64ae7b	0.013957615
150	0xbceb99d6	-0.028759878
151	0xbcf65d2c	-0.030073725
152	0xbcc14081	-0.023590328
153	0xbc9ae74f	-0.018909125
154	0xb96b56d7	-0.00022443697
155	0xbd4e26d3	-0.050329994
156	0xbd392da3	-0.04520954
157	0xbd2a6c8d	-0.04160743
158	0xbd5315e0	-0.051534534
159	0xbc98c207	-0.018647207
160	0xbd9e1614	-0.07719055
161	0xbd5db834	-0.054130748
162	0xbd80b241	-0.06283999
163	0x3c12d71a	0.008962417
164	0xbca1446f	-0.019685952
165	0xbde711e1	-0.11282707
166	0xbd23a418	-0.039951414
167	0xbc8fcdaf	-0.017554132
168	0xbd9d9cd2	-0.07695927
169	0x3c43890d	0.011934531
170	0xbd68d027	-0.056839135
171	0x3a4fa220	0.0007920582
172	0x3d414775	0.047187287
173	0x3d65e8c0	0.05613017
174	0x3d5aeafb	0.05344675
175	0xbd0f0301	-0.034914974
176	0xbcd2a8f9	-0.025715338
177	0xbc280291	-0.010254518
178	0xbd89591e	-0.06706451
179	0x3d6931d8	0.0569323
180	0x3d0549ea	0.032541193
181	0xbd5fbd7b	-0.054624062
182	0xbc808eb6	-0.01569305
183	0x3d186008	0.037200958
184	0xbd866a26	-0.06563215
185	0x3c6fc88a	0.014635215
186	0xbdade477	-0.08490842
187	0xbd56ba33	-0.052423667
188	0xbd1bb1fb	-0.038011532
189	0xbcacf81e	-0.021114405
190	0xbd462ba0	-0.048381448
191	0x3d99df51	0.07513297
192	0xbd0bc745	-0.034125585
193	0xbde3da0e	-0.11125575
194	0x3b0f2142	0.0021839892
195	0xbd7144ca	-0.058903493
196	0xbd1fb126	-0.0389873
197	0x3d39b9ee	0.045343332
198	0xbd33c65c	-0.043890342
199	0xbb47e229	-0.0030499792
200	0xbc64a120	-0.013954431
201	0xbd8a11c6	-0.06741671
202	0xbdc64db1	-0.09682787
203	0x3d4e3113	0.05033977
204	0x3d0b7d50	0.034055054
205	0xbb752a70	-0.0037409328
206	0x3ca09f93	0.01960734
207	0xbd30fde1	-0.043210868
208	0xbd326db4	-0.043561652
209	0x3c1a8cbb	0.009432967
210	0xbbf2fd4f	-0.0074154506
211	0x3cf0aeb1	0.029380174
212	0x3c61403e	0.013748227
213	0x3dcff69e	0.1015446
214	0xbd6d1330	-0.057879627
215	0x3d2bf6b1	0.04198331
216	0xbd23a204	-0.039949432
217	0x3a7a6634	0.00095519726
218	0x3c65b4a5	0.01402012
219	0x3d3a2dbd	0.045453776
220	0xbd0e0f9b	-0.03468285
221	0xbdacc91b	-0.08436795
222	0xbd8a1026	-0.06741361
223	0xbc72ada9	-0.014811912
224	0xbc1af80c	-0.009458553
225	0xbc670f8b	-0.014102827
226	0xbc9e9d68	-0.019362167
227	0x3d258ada	0.040415622
228	0xbd2895fe	-0.04115867
229	0x3cb569cd	0.022145176
230	0xbc9ea741	-0.019366862
231	0x3c3ec76e	0.011644227
232	0xbd4db621	-0.05022252
233	0xbd8d097e	-0.06886576
234	0x3d10aed2	0.03532297
235	0xbcd24f39	-0.025672542
236	0x3c01e3c8	0.007927842
237	0xbcfe277e	-0.03102469
238	0x3d2a8129	0.041627083
239	0x3cab6f0c	0.020926975
240	0xbd6364ae	-0.055515938
241	0x3d153d2a	0.036435284
242	0xbd5d17f5	-0.053977925
243	0x3d753594	0.05986555
244	0x3d28836c	0.04114096
245	0x3cb8868e	0.022525098
246	0xbca92d94	-0.020651616
247	0xbd250e8f	-0.040297087
248	0x3c8c7638	0.017146215
249	0xbd72efd4	-0.05931075
250	0xbae09b97	-0.0017136213
251	0xbd9998f9	-0.0749988
252	0xbd637040	-0.05552697
253	0xbd00f4b3	-0.031483363
254	0xbd25d510	-0.040486395
255	0xbc461562	-0.012090059

bn1.running_mean f4 [256]
0	0x3c994d88	0.018713728
1	0x3cfe4388	0.03103806
2	0xbb48179d	-0.0030531653
3	0x3b91de16	0.0044515235
4	0x3c3fbfc6	0.011703437
5	0x3c1211aa	0.008915344
6	0xbc974602	-0.018466
7	0xbcbf62e9	-0.023362594
8	0x3b528f97	0.0032129043
9	0xbb095726	-0.0020956486
10	0x3c943309	0.018090742
11	0xbc820a1d	-0.015873963
12	0x3a218eac	0.00061629224
13	0xbb73566a	-0.0037130364
14	0x3c0ed4c5	0.00871772
15	0x3b19b584	0.002345414
16	0x3bfd56f9	0.007731315
17	0x3af65d85	0.0018796182
18	0x3c309b07	0.010779149
19	0xbba7c1bc	-0.0051195305
20	0x3c9e2315	0.019303838
21	0x3a5330c0	0.00080562755
22	0x3c7ac93e	0.015306769
23	0x3c5d08ba	0.01349085
24	0x3bb76ce3	0.005597697
25	0x3be43c30	0.0069651827
26	0x3c2b3d81	0.010451675
27	0x3c1c8286	0.009552604
28	0xbbb7498b	-0.005593484
29	0xbc672dc9	-0.014110037
30	0xbc2b9e3f	-0.0104747405
31	0x3c0575cf	0.008145764
32	0x3c7e6e3a	0.01552921
33	0xbc0da3d9	-0.008645021
34	0x3b679e5a	0.0035342188
35	0xba2ca028	-0.00065851444
36	0xbc2ed9eb	-0.010672073
37	0xbbf048e6	-0.007332909
38	0x3acf87ea	0.0015833352
39	0x3b581a0a	0.0032974505
40	0x3c9f3495	0.019434253
41	0xbc4be0ee	-0.012443764
42	0xbc5275b0	-0.012845442
43	0xbc4b1a88	-0.012396462
44	0xbc8bba98	-0.017056748
45	0xbc962ee9	-0.018332915
46	0xbba16fdc	-0.0049266648
47	0x3c918c88	0.017767206
48	0xbbc9d21e	-0.006159081
49	0x3b948f6c	0.004533699
50	0xbc23bbd8	-0.009993516
51	0x3c6f90c4	0.014621917
52	0xbaf3c1e8	-0.0018597217
53	0x3c75f3e4	0.015011761
54	0xbc3597f2	-0.01108359
55	0x3bf518ad	0.007479748
56	0xbc45d568	-0.012074806
57	0xbbe3b970	-0.006949596
58	0xbbb3a3ec	-0.0054821875
59	0xbc5e454b	-0.013566325
60	0x3c09dc60	0.008414358
61	0x3aa9cba2	0.0012954364
62	0x3aeb2fe6	0.0017943352
63	0xbba2e5f6	-0.004971261
64	0xbc8ea19c	-0.017411046
65	0xbb010dfa	-0.0019692169
66	0xbc1f5487	-0.009724743
67	0xbbd3139f	-0.006441548
68	0x3bc9c600	0.0061576366
69	0x3c21407a	0.009842033
70	0xbb905c6c	-0.004405549
71	0xbbc9f6ae	-0.0061634397
72	0x3c2cf1d7	0.010555706
73	0x39a2ea80	0.00031073764
74	0x3ba468ab	0.00501736
75	0x3be9c2b5	0.0071338066
76	0xbba0f020	-0.0049114376
77	0xbb650528	-0.00349457
78	0xbca311a6	-0.019905876
79	0xbd0337ef	-0.032035764
80	0xba27eb98	-0.00064056506
81	0x3bed049e	0.0072332164
82	0xbbe1cd64	-0.0068909395
83	0xbccd559d	-0.025065238
84	0xbb2807e3	-0.0025639466
85	0x3c658eae	0.014011068
86	0xbb7e74c1	-0.0038826915
87	0x3bb8b5d2	0.005636909
88	0x3bc2221e	0.0059244772
89	0xbb62b6f0	-0.0034593903
90	0x3b084932	0.002079558
91	0x3bb8597e	0.0056259027
92	0xbc4bfe60	-0.012450784
93	0x3b5db7a8	0.0033831391
94	0xbab5c734	-0.0013868571
95	0xbc8ea50c	-0.017412685
96	0x3aa9342c	0.0012909225
97	0xbc8ec07d	-0.01742577
98	0x3c39ac78	0.011332624
99	0xbbb67863	-0.0055685504
100	0xba844ce0	-0.0010093711
101	0xbbe47ed2	-0.006973126
102	0xbb86491a	-0.00409807
103	0x3c0d3767	0.008619166
104	0x3c0dad13	0.008647221
105	0xba958e24	-0.0011410159
106	0x3b7685c4	0.0037616352
107	0x3ce673dd	0.02813142
108	0x3c4bc280	0.012436509
109	0xbc82f136	-0.015984159
110	0xbc4b27aa	-0.012399593
111	0xbc21e909	-0.00988222
112	0xbc016f29	-0.007900038
113	0xbccca44d	-0.024980688
114	0xbcc04764	-0.023471542
115	0x3cc313ea	0.023813207
116	0x3c598660	0.013276666
117	0x3bfc8499	0.0077062366
118	0x3bdd26e5	0.0067490214
119	0xbca68859	-0.020328688
120	0xbc58c972	-0.013231622
121	0xbc125ad1	-0.008932785
122	0xbb487eb0	-0.003059309
123	0x3c1be379	0.009514683
124	0xbac5462c	-0.001505082
125	0xbbfb54e2	-0.007670031
126	0xbc8c6641	-0.017138602
127	0xbaa054a0	-0.0012232251
128	0x3a252423	0.0006299635
129	0xbca1aba5	-0.019735167
130	0x3bd49c7a	0.00648838
131	0x3c8b8074	0.017029025
132	0xbc6430b2	-0.0139276255
133	0xbb1cd3a4	-0.0023929859
134	0x3b717e34	0.0036848905
135	0x3c1c094d	0.009523702
136	0x3c6f653c	0.0146115385
137	0xbc17133c	-0.009220894
138	0xbb79d3b0	-0.003812056
139	0xbbdd2a0c	-0.006749397
140	0x3bed0b64	0.007234024
141	0x3b510278	0.003189234
142	0x3b96d3bf	0.004602879
143	0x3b758792	0.003746484
144	0xbc54a80f	-0.012979521
145	0x3c4fe7c8	0.012689538
146	0x3c896140	0.016770005
147	0xba108360	-0.00055127405
148	0xbbda9b7a	-0.0066713663
149	0xbc1a52f1	-0.009419189
150	0xba692600	-0.0008893907
151	0x3c828ba9	0.015935736
152	0xbc1aa3cf	-0.009438469
153	0xbc67f280	-0.014156938
154	0xbabb0388	-0.001426802
155	0x3c334cd2	0.010943608
156	0x399fd9c0	0.0003048908
157	0xbbb26792	-0.0054444754
158	0x3c886bab	0.016652903
159	0xbbeb5200	-0.007181406
160	0x3b746df6	0.0037296987
161	0xba4d3680	-0.00078282505
162	0x3c31f320	0.010861188
163	0x3aee7dc4	0.001819544
164	0xbb9a909b	-0.0047169453
165	0xbbb54053	-0.0055313497
166	0x3b82117c	0.0039693695
167	0x3c0073e4	0.0078401305
168	0x3b7a85c2	0.0038226699
169	0x3a295900	0.00064601004
170	0x3c3586ee	0.011079533
171	0xbca53364	-0.020166107
172	0xbb98cfd3	-0.0046634465
173	0x3b0aff89	0.002120944
174	0xbb0e2674	-0.00216904
175	0xbc6c94e5	-0.014439796
176	0xbc944eb5	-0.018103937
177	0xbbed2d38	-0.0072380565
178	0x3b6440e0	0.0034828708
179	0xbcdb12b8	-0.026742324
180	0x3bd82448	0.006596122
181	0xbafb8408	-0.0019189129
182	0xbb3614c0	-0.0027783364
183	0xbc38f134	-0.011287976
184	0x3c313748	0.010816403
185	0xbc983fd0	-0.018585116
186	0xba83dc9a	-0.0010060251
187	0x3c80aa05	0.015706072
188	0xbc3ab8c7	-0.011396593
189	0xbc265182	-0.010151269
190	0xbc767780	-0.015043139
191	0xbc7c8c37	-0.015414289
192	0x3bf94464	0.0076070298
193	0xbafe2c98	-0.0019391952
194	0x3bc748ca	0.006081675
195	0x3c0a9e92	0.008460658
196	0x3caba8c2	0.020954493
197	0x3ae81b25	0.0017708285
198	0x3c1d8776	0.009614816
199	0xbaa6838c	-0.0012703999
200	0xbbb367b2	-0.005475008
201	0x3b94dfe6	0.0045432923
202	0x3c463123	0.012096676
203	0xba31ab40	-0.00067775324
204	0xbaa3654c	-0.0012466102
205	0x3bf4f761	0.007475779
206	0x3c94ce73	0.018164849
207	0xbc28c952	-0.010301905
208	0xbc41152c	-0.011784833
209	0xbc24a1c8	-0.010048337
210	0x3a69a5f2	0.00089129724
211	0xbb9dd157	-0.004816215
212	0x3c3fd518	0.01170852
213	0xbcc7d3f2	-0.024393056
214	0x3bb665e2	0.0055663446
215	0xbbac548b	-0.0052591017
216	0xbb27efdf	-0.0025625152
217	0x3c9e1662	0.019297782
218	0x3c72da9c	0.014822628
219	0x3ca398e8	0.019970372
220	0xbc2a4e24	-0.010394607
221	0xba59e908	-0.00083126174
222	0xbc25529d	-0.010090497
223	0x3bd7a368	0.006580759
224	0xbbfb2195	-0.0076639154
225	0x3be491ae	0.006975374
226	0x3a31518c	0.00067641656
227	0xbc844f2a	-0.01615103
228	0xb9899f80	-0.00026249513
229	0xbb4f3b58	-0.0031621065
230	0x3bb21c98	0.0054355375
231	0xbbdb275e	-0.0066880425
232	0x3bcee472	0.006313854
233	0x3cb62678	0.02223514
234	0xbb94d25a	-0.0045416774
235	0x3c73a11a	0.014869953
236	0xbc5f5b8f	-0.013632669
237	0xbbc937dc	-0.006140692
238	0xbc85db79	-0.016340004
239	0xbb5677ee	-0.0032725292
240	0xbaa1a8e4	-0.0012333659
241	0xbc153026	-0.009105718
242	0x3ae13120	0.0017180778
243	0xbc16e71b	-0.009210373
244	0x3b00023e	0.0019532586
245	0xbb972e68	-0.0046136864
246	0xbba1beee	-0.0049360907
247	0x3c259661	0.010106654
248	0xbcd22b3e	-0.025655385
249	0x3b44c8e3	0.0030026964
250	0x3c95b4f9	0.018274771
251	0x3bf08141	0.007339627
252	0x3bd9d314	0.006647477
253	0x3c85e425	0.01634414
254	0x3c467bab	0.012114446
255	0xbbb8ae88	-0.00563604

bn1.running_var f4 [256]
0	0x3e028355	0.12745412
1	0x3e81977f	0.25310895
2	0x3d612d24	0.05497469
3	0x3e59ccc2	0.21269515
4	0x3e28aa55	0.16471227
5	0x3e27bc62	0.16380456
6	0x3df044f7	0.11731904
7	0x3e9078b2	0.28217083
8	0x3e00bf33	0.12572937
9	0x3dbc6ccd	0.092004396
10	0x3e6a3641	0.22872259
11	0x3d909e33	0.07061424
12	0x3dcbf74a	0.09959276
13	0x3dd453c9	0.10367543
14	0x3e00f8b9	0.1259488
15	0x3e325dd2	0.17418602
16	0x3e20e7e5	0.1571346
17	0x3decbfcb	0.11560019
18	0x3dc1248a	0.094307974
19	0x3e12c521	0.14333011
20	0x3e2b3e21	0.16722919
21	0x3da5f65a	0.081036285
22	0x3e53bf11	0.20678355
23	0x3dffbecb	0.12487563
24	0x3dc7d096	0.097565815
25	0x3e014cae	0.12626907
26	0x3e06b8fc	0.13156503
27	0x3dba0c09	0.09084327
28	0x3e2395cf	0.15975116
29	0x3e1af852	0.15133789
30	0x3e100f77	0.140684
31	0x3e143b21	0.14475681
32	0x3e45cf25	0.193173
33	0x3e2b85df	0.16750287
34	0x3db85499	0.09000511
35	0x3e80d64d	0.251635
36	0x3ddd6ef1	0.10812176
37	0x3e140b77	0.14457498
38	0x3ddfc4dd	0.109262206
39	0x3e3f8f41	0.18706991
40	0x3e04d495	0.12971719
41	0x3d5de9cc	0.054178044
42	0x3e0ce574	0.13759404
43	0x3df2e55a	0.118601516
44	0x3dae44e8	0.085092366
45	0x3e6af905	0.22946556
46	0x3de0179e	0.109420046
47	0x3e1d615b	0.1536917
48	0x3d8e0c97	0.06935995
49	0x3e6b7dfc	0.22997278
50	0x3e1e733c	0.15473646
51	0x3e2414c9	0.16023554
52	0x3e199ac6	0.15000448
53	0x3e0a8490	0.13527131
54	0x3e79fdfd	0.24413295
55	0x3df62b9a	0.12020035
56	0x3da1e383	0.079047225
57	0x3d6f7bca	0.058467664
58	0x3db93b17	0.090444736
59	0x3da04bfb	0.07826992
60	0x3e1bafaf	0.15203737
61	0x3d9a5af1	0.07536877
62	0x3d5906da	0.05298505
63	0x3e0804ec	0.13283128
64	0x3e009d21	0.1255994
65	0x3e532f03	0.20623402
66	0x3e057666	0.13033447
67	0x3d4bfe9b	0.049803358
68	0x3df14617	0.11780947
69	0x3e0985cc	0.13429946
70	0x3e0f04b4	0.13966638
71	0x3ea1ae91	0.31578496
72	0x3e7de0fc	0.24792856
73	0x3e1184b8	0.14210784
74	0x3d9560b1	0.07293833
75	0x3e0df4cf	0.13862918
76	0x3e740d8e	0.23833296
77	0x3dd35bcc	0.10320243
78	0x3e1dfc73	0.15428333
79	0x3e4ed9ae	0.20200226
80	0x3e02f321	0.12788059
81	0x3e1da477	0.1539477
82	0x3dc8a479	0.09796996
83	0x3dee74c5	0.11643366
84	0x3db63742	0.08897258
85	0x3e1d59f0	0.1536634
86	0x3ddfaf56	0.109221146
87	0x3dd6dae3	0.10490968
88	0x3dfa7e6a	0.12231143
89	0x3e16377b	0.14669602
90	0x3dd765c4	0.10517457
91	0x3df45f43	0.11932232
92	0x3d96ed3b	0.07369467
93	0x3d7e427f	0.062075134
94	0x3dbd137c	0.09232232
95	0x3df0d4e3	0.11759355
96	0x3df059c2	0.1173587
97	0x3dd81516	0.10550897
98	0x3d9ceff8	0.07662958
99	0x3e0df8aa	0.13864389
100	0x3dacdd2b	0.08440622
101	0x3df8df93	0.121520184
102	0x3e42c679	0.19021024
103	0x3daed2a2	0.08536269
104	0x3da68ab1	0.08131922
105	0x3e034df4	0.12822706
106	0x3e075eaf	0.13219713
107	0x3e5d81d3	0.21631555
108	0x3dc71950	0.09721625
109	0x3dc49fc1	0.09600783
110	0x3d981773	0.074263476
111	0x3e030cbf	0.12797831
112	0x3e3ba037	0.18322836
113	0x3e205188	0.15656102
114	0x3e4206eb	0.18947951
115	0x3defff97	0.11718672
116	0x3dd93c81	0.10607243
117	0x3e44719b	0.19183962
118	0x3ded700a	0.115936354
119	0x3dde82cc	0.10864791
120	0x3da33a77	0.07970136
121	0x3e19c718	0.15017354
122	0x3d8891df	0.06668448
123	0x3de638f2	0.1124133
124	0x3e1677c9	0.14694132
125	0x3dab46b4	0.08363095
126	0x3db7b470	0.089699626
127	0x3e038456	0.12843451
128	0x3d7e94eb	0.062153738
129	0x3e2ebb62	0.17063668
130	0x3e215172	0.15753725
131	0x3e45881a	0.192902
132	0x3ec9b2ad	0.3939413
133	0x3e10b11a	0.14130059
134	0x3dca17b3	0.098678015
135	0x3e1aab0b	0.1510431
136	0x3e216eda	0.15764943
137	0x3dc97a7c	0.09837815
138	0x3dba3709	0.090925284
139	0x3e22c71c	0.15896267
140	0x3e015c82	0.12632945
141	0x3e29343c	0.16523832
142	0x3db78f37	0.08962863
143	0x3d85cdfe	0.065334305
144	0x3e0669ab	0.13126247
145	0x3e0c8548	0.13722718
146	0x3e4d9b02	0.20078662
147	0x3dbb5bf7	0.091484
148	0x3ddb22ba	0.10699983
149	0x3da15002	0.078765884
150	0x3e35530b	0.1770746
151	0x3e2c2009	0.16809095
152	0x3e06c7e9	0.13162197
153	0x3dc9bae9	0.098501034
154	0x3e3d3e29	0.18480743
155	0x3e2f44f5	0.17116149
156	0x3e1f2e83	0.15545087
157	0x3dbb9ddc	0.09160969
158	0x3e1a25f4	0.1505354
159	0x3e1d84fc	0.15382761
160	0x3e2ba02e	0.16760322
161	0x3dd7206c	0.10504231
162	0x3e153217	0.14569889
163	0x3d8432cf	0.064550035
164	0x3dc18745	0.09449629
165	0x3e1d3090	0.15350556
166	0x3dd6504e	0.10464536
167	0x3dc37cc7	0.09545284
168	0x3e0cc53c	0.13747114
169	0x3df713ce	0.12064324
170	0x3daefbff	0.08544158
171	0x3e714630	0.2356193
172	0x3d8cbf09	0.068723746
173	0x3e07c4b7	0.13258635
174	0x3e32839f	0.17433022
175	0x3db1f3b5	0.086890616
176	0x3e145b55	0.14487965
177	0x3ddd092e	0.107927665
178	0x3dc4d107	0.09610181
179	0x3e30c4d1	0.1726258
180	0x3e1877a8	0.14889395
181	0x3e25292f	0.16128992
182	0x3e58a31b	0.2115597
183	0x3e324995	0.17410882
184	0x3d9dca00	0.07704544
185	0x3e4ddd37	0.20103918
186	0x3e2ddcc3	0.16978745
187	0x3dcdfa73	0.10057535
188	0x3dcde147	0.10052734
189	0x3e36b1f4	0.17841321
190	0x3d909f58	0.070616424
191	0x3dff99dd	0.12480519
192	0x3e070bb2	0.13188055
193	0x3dcd01f0	0.10010135
194	0x3e0718ec	0.131931
195	0x3e0e59cf	0.13901447
196	0x3e24f055	0.16107304
197	0x3d59fd20	0.053219914
198	0x3e2c08c4	0.16800219
199	0x3e2473a3	0.16059737
200	0x3d6562a3	0.05600227
201	0x3e2bf1ed	0.16791506
202	0x3dde2ca4	0.10848358
203	0x3e17d994	0.14829093
204	0x3dcff3c8	0.101539195
205	0x3dcdac66	0.10042648
206	0x3e2a5f62	0.16637948
207	0x3dfe9609	0.12430961
208	0x3dafcb86	0.08583741
209	0x3db7c8b1	0.08973826
210	0x3e437f1b	0.19091456
211	0x3d620b2b	0.05518643
212	0x3e197adc	0.14988273
213	0x3e527696	0.2055305
214	0x3e169278	0.14704311
215	0x3db612f6	0.08890335
216	0x3d5c0c20	0.0537225
217	0x3e49f1ad	0.19721098
218	0x3e810d7c	0.252056
219	0x3e47f8f0	0.19528556
220	0x3ea4e26d	0.32204
221	0x3e129584	0.14314848
222	0x3dd2d95f	0.102953665
223	0x3e8415dd	0.2579793
224	0x3e0a2166	0.13489303
225	0x3e3b3c2a	0.1828467
226	0x3de2f73a	0.11082311
227	0x3ec20ef2	0.37902027
228	0x3e446f3b	0.19183056
229	0x3e1ad060	0.15118551
230	0x3e2e0d17	0.16997181
231	0x3e2b39a9	0.16721214
232	0x3daf5297	0.08560675
233	0x3e4d4868	0.20047152
234	0x3dc1b1ec	0.09457764
235	0x3e083ddf	0.13304852
236	0x3e3f5160	0.18683386
237	0x3d32039b	0.04346047
238	0x3e3f49ad	0.18680449
239	0x3e1df243	0.15424447
240	0x3e0ca190	0.13733506
241	0x3e46afac	0.19402951
242	0x3e05ec3b	0.13078396
243	0x3de82fcb	0.11337241
244	0x3d85e2b4	0.06537381
245	0x3e89055f	0.2676191
246	0x3e2c800f	0.16845725
247	0x3e2455ff	0.1604843
248	0x3e9c993d	0.30585662
249	0x3e32e378	0.17469585
250	0x3e407f85	0.18798645
251	0x3e47d568	0.19515002
252	0x3dc97ea4	0.09838608
253	0x3e5d1eb3	0.21593742
254	0x3d4c4cfe	0.049878113
255	0x3e18a2b6	0.1490582

fc2.weight f4 [64, 256]
0	0x3d80f2db	0.06296321
1	0x3e2ee381	0.17078973
2	0x3d7783f0	0.06042856
3	0xbe25238b	-0.1612684
4	0xbdcef984	-0.10106185
5	0xbe15feb8	-0.14647949
6	0x3e01f581	0.12691309
7	0xbd73f927	-0.059563782
8	0x3e1735a9	0.14766563
9	0xbb85cfeb	-0.0040836236
10	0xbd3ab1fd	-0.0455799
11	0x3e00457e	0.12526509
12	0x3da0a2c0	0.07843542
13	0x3ddf00e0	0.10888839
14	0x3c6f4779	0.014604443
15	0xbe385ea1	-0.18004848
16	0x3d3530a6	0.044235848
17	0xbdd0338b	-0.10166081
18	0x3d2ef796	0.042716585
19	0x3d7c4d16	0.061596952
20	0xbe199442	-0.14997962
21	0xbdeda90e	-0.1160451
22	0x3dfbe46e	0.12299429
23	0x3dd4802b	0.103760086
24	0xbd97b753	-0.07408013
25	0x3d73d0ba	0.05952523
26	0x3e27b6f6	0.16378388
27	0xbba218f6	-0.004946823
28	0xbc10b861	-0.008833022
29	0xbd6a3509	-0.057179485
30	0x3d8f7d10	0.07006276
31	0x3dfe8c9c	0.12429163
32	0x3ded743c	0.115944356
33	0x3df1295f	0.11775469
34	0xbb38870e	-0.002815667
35	0xbe05ded9	-0.13073291
36	0x3d6449ef	0.05573457
37	0xbdb3193d	-0.08745048
38	0x3dc4cf2a	0.09609826
39	0xbccc99be	-0.024975654
40	0xbd844bf1	-0.06459797
41	0xbdfb2f04	-0.12264827
42	0xbdcc1c1c	-0.09966299
43	0xba0416ff	-0.0005038827
44	0x3ca65b12	0.020307098
45	0x3dbbd1e5	0.091708936
46	0xbded4996	-0.11586301
47	0x3dc97636	0.09837
48	0x3d75856e	0.0599417
49	0x3d3965a1	0.045262937
50	0xbc9f63d3	-0.01945678
51	0x3d769aa5	0.060206074
52	0xbdbd9e75	-0.09258739
53	0x3db67af9	0.08910174
54	0x3db62670	0.0889405
55	0x3c46bff3	0.012130725
56	0xbd028e26	-0.031873845
57	0x3d05f9ae	0.032708816
58	0x3c5a2d87	0.013316519
59	0x3d662e0f	0.05619627
60	0xbda18115	-0.078859486
61	0x3de91eac	0.11382803
62	0x3df018d0	0.117234826
63	0xbd4dc32d	-0.050234962
64	0x3b5d3620	0.0033754185
65	0xbce706e1	-0.028201522
66	0x3daf64ef	0.085641734
67	0x3e256faa	0.16155878
68	0x3dc72105	0.09723095
69	0x3cc76d98	0.02434425
70	0xbd948001	-0.07250977
71	0xbd3c53c7	-0.045978334
72	0xbcb7ee5d	-0.022452528
73	0x3d6f730b	0.058459323
74	0xbe0c62f9	-0.1370963
75	0x3de96d86	0.11397843
76	0xbcbcc46f	-0.023042886
77	0xbc294032	-0.010330247
78	0x3e0a7823	0.13522391
79	0xbca1221c	-0.019669585
80	0x3da3313d	0.07968376
81	0xbdca31dc	-0.09872791
82	0xbc2aa14e	-0.010414435
83	0x3df36c32	0.11885871
84	0xbdc2b805	-0.09507755
85	0xbd46419b	-0.04840241
86	0xbe00f9cf	-0.12595294
87	0x3d3ca04d	0.046051312
88	0xbd8e2b3b	-0.06941839
89	0xbe0ff3b6	-0.14057812
90	0xbdb72cd9	-0.08944101
91	0x3e0a24b6	0.13490567
92	0x3db654bf	0.08902883
93	0x3de85a41	0.113453396
94	0x3e0e716d	0.13910456
95	0xbdadc31b	-0.08484479
96	0xbd83818a	-0.06421192
97	0x3dd46785	0.10371307
98	0xbe192d58	-0.14958704
99	0xbd94a11f	-0.07257294
100	0x3e2a032d	0.16602774
101	0x3dfd5105	0.12368969
102	0xbdcd5971	-0.10026825
103	0xbd80fd33	-0.06298294
104	0x3dde2605	0.108470954
105	0xbe2226c8	-0.15835106
106	0xbe042a48	-0.12906754
107	0xbda75bc1	-0.081717975
108	0xbd9396fd	-0.07206533
109	0xbd0ee985	-0.03489067
110	0xbddb138d	-0.106970884
111	0xbddebae7	-0.108754925
112	0x3c8ac7bd	0.016940946
113	0xbc91fed9	-0.017821716
114	0xbe1cad29	-0.1530043
115	0x3cea3925	0.028591702
116	0xbe2c33e7	-0.16816674
117	0xbddc68fe	-0.10762213
118	0xbb9fb892	-0.0048742974
119	0x3ddb0786	0.10694794
120	0x3e06ebce	0.1317589
121	0x3c3abd99	0.011397743
122	0x3d5f44fd	0.05450915
123	0x3d77f727	0.060538437
124	0x3e0207d5	0.126983
125	0x3dc86155	0.097841896
126	0x3c0c9f47	0.008582897
127	0x3d969e97	0.07354467
128	0xbdd9abe3	-0.10628488
129	0x3ad825c8	0.0016490752
130	0xbc2a8564	-0.010407779
131	0x3ce2598f	0.027630595
132	0x3d648f9a	0.05580101
133	0xbbf070df	-0.007337674
134	0xbdf1cf1e	-0.118070826
135	0xbdb12f52	-0.08651604
136	0xbbde8978	-0.00679129
137	0x3e1f6772	0.15566805
138	0x3d8ad4b9	0.06778855
139	0xbc4033b5	-0.011731078
140	0xbd90cf89	-0.07070834
141	0x3d92d893	0.071702145
142	0x3d95b920	0.073107004
143	0x3c9c495a	0.019077946
144	0x3ba157ba	0.004923788
145	0x3b9c3693	0.004767248
146	0x3d605c2c	0.054775402
147	0xbe2b6978	-0.16739452
148	0xbdc007c4	-0.09376481
149	0x3cb60d30	0.022223085
150	0xbde316ed	-0.11088357
151	0xbc004549	-0.007829019
152	0xbd8a2eff	-0.06747245
153	0xbcf29a82	-0.02961469
154	0x3d6ff6dc	0.058585033
155	0x3c8ac660	0.016940296
156	0xbe0b6b70	-0.13615203
157	0x3da36c14	0.07979599
158	0xbce9a273	-0.028519845
159	0x3c6c008d	0.014404428
160	0xbcbf3280	-0.02333951
161	0xbd9b02ef	-0.07568919
162	0x3d8a21b9	0.06744713
163	0xbd9aaf63	-0.075529836
164	0x3d998bf9	0.07497401
165	0xbce142a4	-0.027497597
166	0x3de6d899	0.112717815
167	0x3d045923	0.03231157
168	0x3ad4c885	0.0016234076
169	0x3c9a45d3	0.018832123
170	0x3d4dcee2	0.050246127
171	0x3d3fb781	0.046805862
172	0xba72aac7	-0.0009257015
173	0xbce648a3	-0.028110808
174	0x3dbad1e0	0.09122062
175	0x3da81056	0.08206241
176	0x3c234a87	0.009966499
177	0xbe0e9494	-0.13923866
178	0x3c69958b	0.014256845
179	0xbdab7a19	-0.08372898
180	0xbdc613f6	-0.09671776
181	0xbe32ad13	-0.17448835
182	0x3da5795a	0.080797866
183	0x3dc1d057	0.09463566
184	0xbe13dc7e	-0.1443958
185	0x3d3d50e9	0.04621974
186	0x3b1f0b42	0.0024268185
187	0xbcbf9bd6	-0.023389738
188	0x3da45493	0.08023944
189	0xbe06cdc9	-0.13164438
190	0x3d2a8db6	0.041639052
191	0xbda4c452	-0.08045258
192	0xbd0dee37	-0.034651008
193	0x3cd8c814	0.026462592
194	0xbe0a369f	-0.13497399
195	0x3d17b5e6	0.037038706
196	0xba873e31	-0.0010318217
197	0xbe155b3d	-0.14585586
198	0x3d8cd242	0.06876041
199	0xbe012a8f	-0.12613891
200	0x3d85ef1d	0.06539748
201	0xbe19a59e	-0.15004584
202	0x3d43631f	0.04770195
203	0xbda392a0	-0.07986951
204	0xbd66d58a	-0.05635599
205	0xbc621dd6	-0.013801059
206	0xbdde8012	-0.10864271
207	0x3cb0999d	0.021557624
208	0x3d9ec9b9	0.07753319
209	0xbcf8113d	-0.030281657
210	0x3e04c3fe	0.1296539
211	0x3de9572d	0.113935806
212	0x3c9bf2a6	0.019036602
213	0x3cf78199	0.030213164
214	0x3d3a0fb2	0.045425124
215	0xbcb5f085	-0.022209415
216	0x3d8d2692	0.06892122
217	0x3d128d47	0.035779264
218	0xbd6f78fa	-0.05846498
219	0x3e005bb8	0.12534988
220	0x3d7357b9	0.05940983
221	0x3df2235c	0.118231505
222	0x3d5788e4	0.052620783
223	0x3de8a548	0.1135965
224	0x3d9c24ab	0.07624181
225	0x3cc6bbdd	0.024259502
226	0xbe0decf9	-0.13859929
227	0x3e07cb80	0.13261223
228	0x3be5d716	0.0070141656
229	0x3d7f1508	0.062275916
230	0xbe0b4e71	-0.13604142
231	0x3c127cf1	0.008940921
232	0x3d907df3	0.07055273
233	0xbcbd0398	-0.023073003
234	0x3d3ba4ae	0.045811348
235	0x3d9f22a6	0.077702805
236	0xbd819646	-0.063274905
237	0xbd4c57d2	-0.04988844
238	0x3dd7c5db	0.10535785
239	0xbe0dacc9	-0.13835444
240	0x3d765b1e	0.06014549
241	0x3d8b3258	0.06796712
242	0x3de9ec05	0.1142197
243	0xbd7b934d	-0.061419774
244	0x3c8b189b	0.016979506
245	0x3d7604cd	0.060063172
246	0xbde9ee19	-0.11422367
247	0x3dc3d014	0.09561172
248	0x3c786edc	0.01516315
249	0xbdf96892	-0.12178148
250	0x3ce43ca2	0.027860943
251	0x3df0f5e1	0.11765648
252	0xbe09093f	-0.13382433
253	0xbe346156	-0.17615256
254	0x3db089e7	0.08620053
255	0xbcf2eccf	-0.029653935

fc2.bias f4 [64]
0	0xba09a815	-0.00052511814
1	0xb9e50ed6	-0.00043689337
2	0x372ab5db	1.0175131e-05
3	0xb97ef36f	-0.00024314014
4	0x3a6ed984	0.0009111392
5	0x3a37603e	0.0006995237
6	0xb9b455e7	-0.00034396278
7	0xba4c52d3	-0.0007794324
8	0xbac68b5d	-0.0015147735
9	0x3a00d48b	0.0004914484
10	0x3a0436da	0.0005043574
11	0x3a9c898c	0.0011942848
12	0x3aa22501	0.0012370647
13	0xbaf8c6a1	-0.0018980094
14	0x3963b3c4	0.00021715375
15	0xbb1efc04	-0.00242591
16	0xbb13222c	-0.0022450788
17	0xba33b82a	-0.00068557507
18	0x3aaf04c8	0.0013352865
19	0xbae95be2	-0.0017803872
20	0xba7c7fc2	-0.00096320745
21	0x379b304c	1.849993e-05
22	0xbaaced43	-0.0013193268
23	0xbabf6627	-0.0014602587
24	0xba945973	-0.0011318162
25	0x3ab2ffa0	0.0013656504
26	0xba0fcfda	-0.00054859894
27	0x3964152b	0.0002175166
28	0xbad884e4	-0.0016519097
29	0xb7e2e968	-2.7049988e-05
30	0xba83471c	-0.0010015699
31	0x3a34fab6	0.0006903814
32	0x3b2cc7f8	0.0026364308
33	0xb9ef6036	-0.00045657315
34	0x3b1ddb2e	0.002408694
35	0xba4df1c1	-0.00078561535
36	0xbae9077f	-0.0017778723
37	0xbae3c381	-0.001737699
38	0x3997bd0c	0.00028941815
39	0x3728e778	1.0067473e-05
40	0x3a811e95	0.0009851033
41	0x39e02a3a	0.0004275607
42	0xba810270	-0.0009842645
43	0xb796d3cf	-1.7980024e-05
44	0x3965b65f	0.0002190708
45	0xba148f7f	-0.00056671345
46	0x3aa93f08	0.0012912462
47	0x38b7ea68	8.7697816e-05
48	0x3b0847c0	0.002079472
49	0xbaa423a5	-0.001252283
50	0x3ac9e686	0.0015403784
51	0x3a8da361	0.0010806137
52	0xba23d4ac	-0.0006249647
53	0xba3cdd83	-0.00072046387
54	0xb887dab4	-6.478038e-05
55	0x3a8e0f75	0.0010838347
56	0x39258f20	0.00015788944
57	0x3a8df922	0.0010831694
58	0x3a10d54a	0.00055249466
59	0xbac85f19	-0.001528713
60	0xbb4f2e18	-0.0031613167
61	0xba9d339c	-0.001199353
62	0xba04376c	-0.0005043659
63	0xb88128c2	-6.158791e-05
